node {
  name: "Placeholder"
  op: "Placeholder"
  attr {
    key: "dtype"
    value {
      type: DT_STRING
    }
  }
  attr {
    key: "shape"
    value {
      shape {
      }
    }
  }
}
node {
  name: "ReadFile"
  op: "ReadFile"
  input: "Placeholder"
}
node {
  name: "DecodeWav"
  op: "DecodeWav"
  input: "ReadFile"
  attr {
    key: "desired_channels"
    value {
      i: 1
    }
  }
  attr {
    key: "desired_samples"
    value {
      i: 16000
    }
  }
}
node {
  name: "Placeholder_1"
  op: "Placeholder"
  attr {
    key: "dtype"
    value {
      type: DT_FLOAT
    }
  }
  attr {
    key: "shape"
    value {
      shape {
      }
    }
  }
}
node {
  name: "Mul"
  op: "Mul"
  input: "DecodeWav"
  input: "Placeholder_1"
  attr {
    key: "T"
    value {
      type: DT_FLOAT
    }
  }
}
node {
  name: "Placeholder_2"
  op: "Placeholder"
  attr {
    key: "dtype"
    value {
      type: DT_INT32
    }
  }
  attr {
    key: "shape"
    value {
      shape {
        dim {
          size: 2
        }
        dim {
          size: 2
        }
      }
    }
  }
}
node {
  name: "Placeholder_3"
  op: "Placeholder"
  attr {
    key: "dtype"
    value {
      type: DT_INT32
    }
  }
  attr {
    key: "shape"
    value {
      shape {
        dim {
          size: 2
        }
      }
    }
  }
}
node {
  name: "Pad"
  op: "Pad"
  input: "Mul"
  input: "Placeholder_2"
  attr {
    key: "T"
    value {
      type: DT_FLOAT
    }
  }
  attr {
    key: "Tpaddings"
    value {
      type: DT_INT32
    }
  }
}
node {
  name: "Slice/size"
  op: "Const"
  attr {
    key: "dtype"
    value {
      type: DT_INT32
    }
  }
  attr {
    key: "value"
    value {
      tensor {
        dtype: DT_INT32
        tensor_shape {
          dim {
            size: 2
          }
        }
        tensor_content: "\200>\000\000\377\377\377\377"
      }
    }
  }
}
node {
  name: "Slice"
  op: "Slice"
  input: "Pad"
  input: "Placeholder_3"
  input: "Slice/size"
  attr {
    key: "Index"
    value {
      type: DT_INT32
    }
  }
  attr {
    key: "T"
    value {
      type: DT_FLOAT
    }
  }
}
node {
  name: "Placeholder_4"
  op: "Placeholder"
  attr {
    key: "dtype"
    value {
      type: DT_FLOAT
    }
  }
  attr {
    key: "shape"
    value {
      shape {
        dim {
          size: 16000
        }
        dim {
          size: 1
        }
      }
    }
  }
}
node {
  name: "Placeholder_5"
  op: "Placeholder"
  attr {
    key: "dtype"
    value {
      type: DT_FLOAT
    }
  }
  attr {
    key: "shape"
    value {
      shape {
      }
    }
  }
}
node {
  name: "Mul_1"
  op: "Mul"
  input: "Placeholder_4"
  input: "Placeholder_5"
  attr {
    key: "T"
    value {
      type: DT_FLOAT
    }
  }
}
node {
  name: "Add"
  op: "Add"
  input: "Mul_1"
  input: "Slice"
  attr {
    key: "T"
    value {
      type: DT_FLOAT
    }
  }
}
node {
  name: "clip_by_value/Minimum/y"
  op: "Const"
  attr {
    key: "dtype"
    value {
      type: DT_FLOAT
    }
  }
  attr {
    key: "value"
    value {
      tensor {
        dtype: DT_FLOAT
        tensor_shape {
        }
        float_val: 1.0
      }
    }
  }
}
node {
  name: "clip_by_value/Minimum"
  op: "Minimum"
  input: "Add"
  input: "clip_by_value/Minimum/y"
  attr {
    key: "T"
    value {
      type: DT_FLOAT
    }
  }
}
node {
  name: "clip_by_value/y"
  op: "Const"
  attr {
    key: "dtype"
    value {
      type: DT_FLOAT
    }
  }
  attr {
    key: "value"
    value {
      tensor {
        dtype: DT_FLOAT
        tensor_shape {
        }
        float_val: -1.0
      }
    }
  }
}
node {
  name: "clip_by_value"
  op: "Maximum"
  input: "clip_by_value/Minimum"
  input: "clip_by_value/y"
  attr {
    key: "T"
    value {
      type: DT_FLOAT
    }
  }
}
node {
  name: "AudioSpectrogram"
  op: "AudioSpectrogram"
  input: "clip_by_value"
  attr {
    key: "magnitude_squared"
    value {
      b: true
    }
  }
  attr {
    key: "stride"
    value {
      i: 160
    }
  }
  attr {
    key: "window_size"
    value {
      i: 480
    }
  }
}
node {
  name: "Mfcc"
  op: "Mfcc"
  input: "AudioSpectrogram"
  input: "DecodeWav:1"
  attr {
    key: "dct_coefficient_count"
    value {
      i: 40
    }
  }
  attr {
    key: "filterbank_channel_count"
    value {
      i: 40
    }
  }
  attr {
    key: "lower_frequency_limit"
    value {
      f: 20.0
    }
  }
  attr {
    key: "upper_frequency_limit"
    value {
      f: 4000.0
    }
  }
}
node {
  name: "fingerprint_input"
  op: "Placeholder"
  attr {
    key: "dtype"
    value {
      type: DT_FLOAT
    }
  }
  attr {
    key: "shape"
    value {
      shape {
        dim {
          size: -1
        }
        dim {
          size: 3920
        }
      }
    }
  }
}
node {
  name: "dropout_prob"
  op: "Placeholder"
  attr {
    key: "dtype"
    value {
      type: DT_FLOAT
    }
  }
  attr {
    key: "shape"
    value {
      shape {
        unknown_rank: true
      }
    }
  }
}
node {
  name: "Reshape/shape"
  op: "Const"
  attr {
    key: "dtype"
    value {
      type: DT_INT32
    }
  }
  attr {
    key: "value"
    value {
      tensor {
        dtype: DT_INT32
        tensor_shape {
          dim {
            size: 4
          }
        }
        tensor_content: "\377\377\377\377b\000\000\000(\000\000\000\001\000\000\000"
      }
    }
  }
}
node {
  name: "Reshape"
  op: "Reshape"
  input: "fingerprint_input"
  input: "Reshape/shape"
  attr {
    key: "T"
    value {
      type: DT_FLOAT
    }
  }
  attr {
    key: "Tshape"
    value {
      type: DT_INT32
    }
  }
}
node {
  name: "init_conv/Conv/weights/Initializer/random_uniform/shape"
  op: "Const"
  attr {
    key: "_class"
    value {
      list {
        s: "loc:@init_conv/Conv/weights"
      }
    }
  }
  attr {
    key: "dtype"
    value {
      type: DT_INT32
    }
  }
  attr {
    key: "value"
    value {
      tensor {
        dtype: DT_INT32
        tensor_shape {
          dim {
            size: 4
          }
        }
        tensor_content: "\003\000\000\000\003\000\000\000\001\000\000\000@\000\000\000"
      }
    }
  }
}
node {
  name: "init_conv/Conv/weights/Initializer/random_uniform/min"
  op: "Const"
  attr {
    key: "_class"
    value {
      list {
        s: "loc:@init_conv/Conv/weights"
      }
    }
  }
  attr {
    key: "dtype"
    value {
      type: DT_FLOAT
    }
  }
  attr {
    key: "value"
    value {
      tensor {
        dtype: DT_FLOAT
        tensor_shape {
        }
        float_val: -0.10127393901348114
      }
    }
  }
}
node {
  name: "init_conv/Conv/weights/Initializer/random_uniform/max"
  op: "Const"
  attr {
    key: "_class"
    value {
      list {
        s: "loc:@init_conv/Conv/weights"
      }
    }
  }
  attr {
    key: "dtype"
    value {
      type: DT_FLOAT
    }
  }
  attr {
    key: "value"
    value {
      tensor {
        dtype: DT_FLOAT
        tensor_shape {
        }
        float_val: 0.10127393901348114
      }
    }
  }
}
node {
  name: "init_conv/Conv/weights/Initializer/random_uniform/RandomUniform"
  op: "RandomUniform"
  input: "init_conv/Conv/weights/Initializer/random_uniform/shape"
  attr {
    key: "T"
    value {
      type: DT_INT32
    }
  }
  attr {
    key: "_class"
    value {
      list {
        s: "loc:@init_conv/Conv/weights"
      }
    }
  }
  attr {
    key: "dtype"
    value {
      type: DT_FLOAT
    }
  }
  attr {
    key: "seed"
    value {
      i: 0
    }
  }
  attr {
    key: "seed2"
    value {
      i: 0
    }
  }
}
node {
  name: "init_conv/Conv/weights/Initializer/random_uniform/sub"
  op: "Sub"
  input: "init_conv/Conv/weights/Initializer/random_uniform/max"
  input: "init_conv/Conv/weights/Initializer/random_uniform/min"
  attr {
    key: "T"
    value {
      type: DT_FLOAT
    }
  }
  attr {
    key: "_class"
    value {
      list {
        s: "loc:@init_conv/Conv/weights"
      }
    }
  }
}
node {
  name: "init_conv/Conv/weights/Initializer/random_uniform/mul"
  op: "Mul"
  input: "init_conv/Conv/weights/Initializer/random_uniform/RandomUniform"
  input: "init_conv/Conv/weights/Initializer/random_uniform/sub"
  attr {
    key: "T"
    value {
      type: DT_FLOAT
    }
  }
  attr {
    key: "_class"
    value {
      list {
        s: "loc:@init_conv/Conv/weights"
      }
    }
  }
}
node {
  name: "init_conv/Conv/weights/Initializer/random_uniform"
  op: "Add"
  input: "init_conv/Conv/weights/Initializer/random_uniform/mul"
  input: "init_conv/Conv/weights/Initializer/random_uniform/min"
  attr {
    key: "T"
    value {
      type: DT_FLOAT
    }
  }
  attr {
    key: "_class"
    value {
      list {
        s: "loc:@init_conv/Conv/weights"
      }
    }
  }
}
node {
  name: "init_conv/Conv/weights"
  op: "VariableV2"
  attr {
    key: "_class"
    value {
      list {
        s: "loc:@init_conv/Conv/weights"
      }
    }
  }
  attr {
    key: "container"
    value {
      s: ""
    }
  }
  attr {
    key: "dtype"
    value {
      type: DT_FLOAT
    }
  }
  attr {
    key: "shape"
    value {
      shape {
        dim {
          size: 3
        }
        dim {
          size: 3
        }
        dim {
          size: 1
        }
        dim {
          size: 64
        }
      }
    }
  }
  attr {
    key: "shared_name"
    value {
      s: ""
    }
  }
}
node {
  name: "init_conv/Conv/weights/Assign"
  op: "Assign"
  input: "init_conv/Conv/weights"
  input: "init_conv/Conv/weights/Initializer/random_uniform"
  attr {
    key: "T"
    value {
      type: DT_FLOAT
    }
  }
  attr {
    key: "_class"
    value {
      list {
        s: "loc:@init_conv/Conv/weights"
      }
    }
  }
  attr {
    key: "use_locking"
    value {
      b: true
    }
  }
  attr {
    key: "validate_shape"
    value {
      b: true
    }
  }
}
node {
  name: "init_conv/Conv/weights/read"
  op: "Identity"
  input: "init_conv/Conv/weights"
  attr {
    key: "T"
    value {
      type: DT_FLOAT
    }
  }
  attr {
    key: "_class"
    value {
      list {
        s: "loc:@init_conv/Conv/weights"
      }
    }
  }
}
node {
  name: "init_conv/Conv/dilation_rate"
  op: "Const"
  attr {
    key: "dtype"
    value {
      type: DT_INT32
    }
  }
  attr {
    key: "value"
    value {
      tensor {
        dtype: DT_INT32
        tensor_shape {
          dim {
            size: 2
          }
        }
        tensor_content: "\001\000\000\000\001\000\000\000"
      }
    }
  }
}
node {
  name: "init_conv/Conv/Conv2D"
  op: "Conv2D"
  input: "Reshape"
  input: "init_conv/Conv/weights/read"
  attr {
    key: "T"
    value {
      type: DT_FLOAT
    }
  }
  attr {
    key: "data_format"
    value {
      s: "NHWC"
    }
  }
  attr {
    key: "dilations"
    value {
      list {
        i: 1
        i: 1
        i: 1
        i: 1
      }
    }
  }
  attr {
    key: "padding"
    value {
      s: "SAME"
    }
  }
  attr {
    key: "strides"
    value {
      list {
        i: 1
        i: 2
        i: 2
        i: 1
      }
    }
  }
  attr {
    key: "use_cudnn_on_gpu"
    value {
      b: true
    }
  }
}
node {
  name: "init_conv/Conv/BatchNorm/Const"
  op: "Const"
  attr {
    key: "dtype"
    value {
      type: DT_FLOAT
    }
  }
  attr {
    key: "value"
    value {
      tensor {
        dtype: DT_FLOAT
        tensor_shape {
          dim {
            size: 64
          }
        }
        float_val: 1.0
      }
    }
  }
}
node {
  name: "init_conv/Conv/BatchNorm/beta/Initializer/zeros/shape_as_tensor"
  op: "Const"
  attr {
    key: "_class"
    value {
      list {
        s: "loc:@init_conv/Conv/BatchNorm/beta"
      }
    }
  }
  attr {
    key: "dtype"
    value {
      type: DT_INT32
    }
  }
  attr {
    key: "value"
    value {
      tensor {
        dtype: DT_INT32
        tensor_shape {
          dim {
            size: 1
          }
        }
        int_val: 64
      }
    }
  }
}
node {
  name: "init_conv/Conv/BatchNorm/beta/Initializer/zeros/Const"
  op: "Const"
  attr {
    key: "_class"
    value {
      list {
        s: "loc:@init_conv/Conv/BatchNorm/beta"
      }
    }
  }
  attr {
    key: "dtype"
    value {
      type: DT_FLOAT
    }
  }
  attr {
    key: "value"
    value {
      tensor {
        dtype: DT_FLOAT
        tensor_shape {
        }
        float_val: 0.0
      }
    }
  }
}
node {
  name: "init_conv/Conv/BatchNorm/beta/Initializer/zeros"
  op: "Fill"
  input: "init_conv/Conv/BatchNorm/beta/Initializer/zeros/shape_as_tensor"
  input: "init_conv/Conv/BatchNorm/beta/Initializer/zeros/Const"
  attr {
    key: "T"
    value {
      type: DT_FLOAT
    }
  }
  attr {
    key: "_class"
    value {
      list {
        s: "loc:@init_conv/Conv/BatchNorm/beta"
      }
    }
  }
  attr {
    key: "index_type"
    value {
      type: DT_INT32
    }
  }
}
node {
  name: "init_conv/Conv/BatchNorm/beta"
  op: "VariableV2"
  attr {
    key: "_class"
    value {
      list {
        s: "loc:@init_conv/Conv/BatchNorm/beta"
      }
    }
  }
  attr {
    key: "container"
    value {
      s: ""
    }
  }
  attr {
    key: "dtype"
    value {
      type: DT_FLOAT
    }
  }
  attr {
    key: "shape"
    value {
      shape {
        dim {
          size: 64
        }
      }
    }
  }
  attr {
    key: "shared_name"
    value {
      s: ""
    }
  }
}
node {
  name: "init_conv/Conv/BatchNorm/beta/Assign"
  op: "Assign"
  input: "init_conv/Conv/BatchNorm/beta"
  input: "init_conv/Conv/BatchNorm/beta/Initializer/zeros"
  attr {
    key: "T"
    value {
      type: DT_FLOAT
    }
  }
  attr {
    key: "_class"
    value {
      list {
        s: "loc:@init_conv/Conv/BatchNorm/beta"
      }
    }
  }
  attr {
    key: "use_locking"
    value {
      b: true
    }
  }
  attr {
    key: "validate_shape"
    value {
      b: true
    }
  }
}
node {
  name: "init_conv/Conv/BatchNorm/beta/read"
  op: "Identity"
  input: "init_conv/Conv/BatchNorm/beta"
  attr {
    key: "T"
    value {
      type: DT_FLOAT
    }
  }
  attr {
    key: "_class"
    value {
      list {
        s: "loc:@init_conv/Conv/BatchNorm/beta"
      }
    }
  }
}
node {
  name: "init_conv/Conv/BatchNorm/moving_mean/Initializer/zeros/shape_as_tensor"
  op: "Const"
  attr {
    key: "_class"
    value {
      list {
        s: "loc:@init_conv/Conv/BatchNorm/moving_mean"
      }
    }
  }
  attr {
    key: "dtype"
    value {
      type: DT_INT32
    }
  }
  attr {
    key: "value"
    value {
      tensor {
        dtype: DT_INT32
        tensor_shape {
          dim {
            size: 1
          }
        }
        int_val: 64
      }
    }
  }
}
node {
  name: "init_conv/Conv/BatchNorm/moving_mean/Initializer/zeros/Const"
  op: "Const"
  attr {
    key: "_class"
    value {
      list {
        s: "loc:@init_conv/Conv/BatchNorm/moving_mean"
      }
    }
  }
  attr {
    key: "dtype"
    value {
      type: DT_FLOAT
    }
  }
  attr {
    key: "value"
    value {
      tensor {
        dtype: DT_FLOAT
        tensor_shape {
        }
        float_val: 0.0
      }
    }
  }
}
node {
  name: "init_conv/Conv/BatchNorm/moving_mean/Initializer/zeros"
  op: "Fill"
  input: "init_conv/Conv/BatchNorm/moving_mean/Initializer/zeros/shape_as_tensor"
  input: "init_conv/Conv/BatchNorm/moving_mean/Initializer/zeros/Const"
  attr {
    key: "T"
    value {
      type: DT_FLOAT
    }
  }
  attr {
    key: "_class"
    value {
      list {
        s: "loc:@init_conv/Conv/BatchNorm/moving_mean"
      }
    }
  }
  attr {
    key: "index_type"
    value {
      type: DT_INT32
    }
  }
}
node {
  name: "init_conv/Conv/BatchNorm/moving_mean"
  op: "VariableV2"
  attr {
    key: "_class"
    value {
      list {
        s: "loc:@init_conv/Conv/BatchNorm/moving_mean"
      }
    }
  }
  attr {
    key: "container"
    value {
      s: ""
    }
  }
  attr {
    key: "dtype"
    value {
      type: DT_FLOAT
    }
  }
  attr {
    key: "shape"
    value {
      shape {
        dim {
          size: 64
        }
      }
    }
  }
  attr {
    key: "shared_name"
    value {
      s: ""
    }
  }
}
node {
  name: "init_conv/Conv/BatchNorm/moving_mean/Assign"
  op: "Assign"
  input: "init_conv/Conv/BatchNorm/moving_mean"
  input: "init_conv/Conv/BatchNorm/moving_mean/Initializer/zeros"
  attr {
    key: "T"
    value {
      type: DT_FLOAT
    }
  }
  attr {
    key: "_class"
    value {
      list {
        s: "loc:@init_conv/Conv/BatchNorm/moving_mean"
      }
    }
  }
  attr {
    key: "use_locking"
    value {
      b: true
    }
  }
  attr {
    key: "validate_shape"
    value {
      b: true
    }
  }
}
node {
  name: "init_conv/Conv/BatchNorm/moving_mean/read"
  op: "Identity"
  input: "init_conv/Conv/BatchNorm/moving_mean"
  attr {
    key: "T"
    value {
      type: DT_FLOAT
    }
  }
  attr {
    key: "_class"
    value {
      list {
        s: "loc:@init_conv/Conv/BatchNorm/moving_mean"
      }
    }
  }
}
node {
  name: "init_conv/Conv/BatchNorm/moving_variance/Initializer/ones/shape_as_tensor"
  op: "Const"
  attr {
    key: "_class"
    value {
      list {
        s: "loc:@init_conv/Conv/BatchNorm/moving_variance"
      }
    }
  }
  attr {
    key: "dtype"
    value {
      type: DT_INT32
    }
  }
  attr {
    key: "value"
    value {
      tensor {
        dtype: DT_INT32
        tensor_shape {
          dim {
            size: 1
          }
        }
        int_val: 64
      }
    }
  }
}
node {
  name: "init_conv/Conv/BatchNorm/moving_variance/Initializer/ones/Const"
  op: "Const"
  attr {
    key: "_class"
    value {
      list {
        s: "loc:@init_conv/Conv/BatchNorm/moving_variance"
      }
    }
  }
  attr {
    key: "dtype"
    value {
      type: DT_FLOAT
    }
  }
  attr {
    key: "value"
    value {
      tensor {
        dtype: DT_FLOAT
        tensor_shape {
        }
        float_val: 1.0
      }
    }
  }
}
node {
  name: "init_conv/Conv/BatchNorm/moving_variance/Initializer/ones"
  op: "Fill"
  input: "init_conv/Conv/BatchNorm/moving_variance/Initializer/ones/shape_as_tensor"
  input: "init_conv/Conv/BatchNorm/moving_variance/Initializer/ones/Const"
  attr {
    key: "T"
    value {
      type: DT_FLOAT
    }
  }
  attr {
    key: "_class"
    value {
      list {
        s: "loc:@init_conv/Conv/BatchNorm/moving_variance"
      }
    }
  }
  attr {
    key: "index_type"
    value {
      type: DT_INT32
    }
  }
}
node {
  name: "init_conv/Conv/BatchNorm/moving_variance"
  op: "VariableV2"
  attr {
    key: "_class"
    value {
      list {
        s: "loc:@init_conv/Conv/BatchNorm/moving_variance"
      }
    }
  }
  attr {
    key: "container"
    value {
      s: ""
    }
  }
  attr {
    key: "dtype"
    value {
      type: DT_FLOAT
    }
  }
  attr {
    key: "shape"
    value {
      shape {
        dim {
          size: 64
        }
      }
    }
  }
  attr {
    key: "shared_name"
    value {
      s: ""
    }
  }
}
node {
  name: "init_conv/Conv/BatchNorm/moving_variance/Assign"
  op: "Assign"
  input: "init_conv/Conv/BatchNorm/moving_variance"
  input: "init_conv/Conv/BatchNorm/moving_variance/Initializer/ones"
  attr {
    key: "T"
    value {
      type: DT_FLOAT
    }
  }
  attr {
    key: "_class"
    value {
      list {
        s: "loc:@init_conv/Conv/BatchNorm/moving_variance"
      }
    }
  }
  attr {
    key: "use_locking"
    value {
      b: true
    }
  }
  attr {
    key: "validate_shape"
    value {
      b: true
    }
  }
}
node {
  name: "init_conv/Conv/BatchNorm/moving_variance/read"
  op: "Identity"
  input: "init_conv/Conv/BatchNorm/moving_variance"
  attr {
    key: "T"
    value {
      type: DT_FLOAT
    }
  }
  attr {
    key: "_class"
    value {
      list {
        s: "loc:@init_conv/Conv/BatchNorm/moving_variance"
      }
    }
  }
}
node {
  name: "init_conv/Conv/BatchNorm/Const_1"
  op: "Const"
  attr {
    key: "dtype"
    value {
      type: DT_FLOAT
    }
  }
  attr {
    key: "value"
    value {
      tensor {
        dtype: DT_FLOAT
        tensor_shape {
          dim {
          }
        }
      }
    }
  }
}
node {
  name: "init_conv/Conv/BatchNorm/Const_2"
  op: "Const"
  attr {
    key: "dtype"
    value {
      type: DT_FLOAT
    }
  }
  attr {
    key: "value"
    value {
      tensor {
        dtype: DT_FLOAT
        tensor_shape {
          dim {
          }
        }
      }
    }
  }
}
node {
  name: "init_conv/Conv/BatchNorm/FusedBatchNorm"
  op: "FusedBatchNorm"
  input: "init_conv/Conv/Conv2D"
  input: "init_conv/Conv/BatchNorm/Const"
  input: "init_conv/Conv/BatchNorm/beta/read"
  input: "init_conv/Conv/BatchNorm/Const_1"
  input: "init_conv/Conv/BatchNorm/Const_2"
  attr {
    key: "T"
    value {
      type: DT_FLOAT
    }
  }
  attr {
    key: "data_format"
    value {
      s: "NHWC"
    }
  }
  attr {
    key: "epsilon"
    value {
      f: 0.0010000000474974513
    }
  }
  attr {
    key: "is_training"
    value {
      b: true
    }
  }
}
node {
  name: "init_conv/Conv/BatchNorm/Const_3"
  op: "Const"
  attr {
    key: "dtype"
    value {
      type: DT_FLOAT
    }
  }
  attr {
    key: "value"
    value {
      tensor {
        dtype: DT_FLOAT
        tensor_shape {
        }
        float_val: 0.0010000000474974513
      }
    }
  }
}
node {
  name: "init_conv/Conv/BatchNorm/AssignMovingAvg/read"
  op: "Identity"
  input: "init_conv/Conv/BatchNorm/moving_mean"
  attr {
    key: "T"
    value {
      type: DT_FLOAT
    }
  }
  attr {
    key: "_class"
    value {
      list {
        s: "loc:@init_conv/Conv/BatchNorm/moving_mean"
      }
    }
  }
}
node {
  name: "init_conv/Conv/BatchNorm/AssignMovingAvg/Sub"
  op: "Sub"
  input: "init_conv/Conv/BatchNorm/AssignMovingAvg/read"
  input: "init_conv/Conv/BatchNorm/FusedBatchNorm:1"
  attr {
    key: "T"
    value {
      type: DT_FLOAT
    }
  }
  attr {
    key: "_class"
    value {
      list {
        s: "loc:@init_conv/Conv/BatchNorm/moving_mean"
      }
    }
  }
}
node {
  name: "init_conv/Conv/BatchNorm/AssignMovingAvg/Mul"
  op: "Mul"
  input: "init_conv/Conv/BatchNorm/AssignMovingAvg/Sub"
  input: "init_conv/Conv/BatchNorm/Const_3"
  attr {
    key: "T"
    value {
      type: DT_FLOAT
    }
  }
  attr {
    key: "_class"
    value {
      list {
        s: "loc:@init_conv/Conv/BatchNorm/moving_mean"
      }
    }
  }
}
node {
  name: "init_conv/Conv/BatchNorm/AssignMovingAvg"
  op: "AssignSub"
  input: "init_conv/Conv/BatchNorm/moving_mean"
  input: "init_conv/Conv/BatchNorm/AssignMovingAvg/Mul"
  attr {
    key: "T"
    value {
      type: DT_FLOAT
    }
  }
  attr {
    key: "_class"
    value {
      list {
        s: "loc:@init_conv/Conv/BatchNorm/moving_mean"
      }
    }
  }
  attr {
    key: "use_locking"
    value {
      b: false
    }
  }
}
node {
  name: "init_conv/Conv/BatchNorm/AssignMovingAvg_1/read"
  op: "Identity"
  input: "init_conv/Conv/BatchNorm/moving_variance"
  attr {
    key: "T"
    value {
      type: DT_FLOAT
    }
  }
  attr {
    key: "_class"
    value {
      list {
        s: "loc:@init_conv/Conv/BatchNorm/moving_variance"
      }
    }
  }
}
node {
  name: "init_conv/Conv/BatchNorm/AssignMovingAvg_1/Sub"
  op: "Sub"
  input: "init_conv/Conv/BatchNorm/AssignMovingAvg_1/read"
  input: "init_conv/Conv/BatchNorm/FusedBatchNorm:2"
  attr {
    key: "T"
    value {
      type: DT_FLOAT
    }
  }
  attr {
    key: "_class"
    value {
      list {
        s: "loc:@init_conv/Conv/BatchNorm/moving_variance"
      }
    }
  }
}
node {
  name: "init_conv/Conv/BatchNorm/AssignMovingAvg_1/Mul"
  op: "Mul"
  input: "init_conv/Conv/BatchNorm/AssignMovingAvg_1/Sub"
  input: "init_conv/Conv/BatchNorm/Const_3"
  attr {
    key: "T"
    value {
      type: DT_FLOAT
    }
  }
  attr {
    key: "_class"
    value {
      list {
        s: "loc:@init_conv/Conv/BatchNorm/moving_variance"
      }
    }
  }
}
node {
  name: "init_conv/Conv/BatchNorm/AssignMovingAvg_1"
  op: "AssignSub"
  input: "init_conv/Conv/BatchNorm/moving_variance"
  input: "init_conv/Conv/BatchNorm/AssignMovingAvg_1/Mul"
  attr {
    key: "T"
    value {
      type: DT_FLOAT
    }
  }
  attr {
    key: "_class"
    value {
      list {
        s: "loc:@init_conv/Conv/BatchNorm/moving_variance"
      }
    }
  }
  attr {
    key: "use_locking"
    value {
      b: false
    }
  }
}
node {
  name: "init_conv/Conv/Relu"
  op: "Relu"
  input: "init_conv/Conv/BatchNorm/FusedBatchNorm"
  attr {
    key: "T"
    value {
      type: DT_FLOAT
    }
  }
}
node {
  name: "inverted_bottleneck0_1_0/Conv/weights/Initializer/random_uniform/shape"
  op: "Const"
  attr {
    key: "_class"
    value {
      list {
        s: "loc:@inverted_bottleneck0_1_0/Conv/weights"
      }
    }
  }
  attr {
    key: "dtype"
    value {
      type: DT_INT32
    }
  }
  attr {
    key: "value"
    value {
      tensor {
        dtype: DT_INT32
        tensor_shape {
          dim {
            size: 4
          }
        }
        tensor_content: "\001\000\000\000\001\000\000\000@\000\000\000@\000\000\000"
      }
    }
  }
}
node {
  name: "inverted_bottleneck0_1_0/Conv/weights/Initializer/random_uniform/min"
  op: "Const"
  attr {
    key: "_class"
    value {
      list {
        s: "loc:@inverted_bottleneck0_1_0/Conv/weights"
      }
    }
  }
  attr {
    key: "dtype"
    value {
      type: DT_FLOAT
    }
  }
  attr {
    key: "value"
    value {
      tensor {
        dtype: DT_FLOAT
        tensor_shape {
        }
        float_val: -0.21650634706020355
      }
    }
  }
}
node {
  name: "inverted_bottleneck0_1_0/Conv/weights/Initializer/random_uniform/max"
  op: "Const"
  attr {
    key: "_class"
    value {
      list {
        s: "loc:@inverted_bottleneck0_1_0/Conv/weights"
      }
    }
  }
  attr {
    key: "dtype"
    value {
      type: DT_FLOAT
    }
  }
  attr {
    key: "value"
    value {
      tensor {
        dtype: DT_FLOAT
        tensor_shape {
        }
        float_val: 0.21650634706020355
      }
    }
  }
}
node {
  name: "inverted_bottleneck0_1_0/Conv/weights/Initializer/random_uniform/RandomUniform"
  op: "RandomUniform"
  input: "inverted_bottleneck0_1_0/Conv/weights/Initializer/random_uniform/shape"
  attr {
    key: "T"
    value {
      type: DT_INT32
    }
  }
  attr {
    key: "_class"
    value {
      list {
        s: "loc:@inverted_bottleneck0_1_0/Conv/weights"
      }
    }
  }
  attr {
    key: "dtype"
    value {
      type: DT_FLOAT
    }
  }
  attr {
    key: "seed"
    value {
      i: 0
    }
  }
  attr {
    key: "seed2"
    value {
      i: 0
    }
  }
}
node {
  name: "inverted_bottleneck0_1_0/Conv/weights/Initializer/random_uniform/sub"
  op: "Sub"
  input: "inverted_bottleneck0_1_0/Conv/weights/Initializer/random_uniform/max"
  input: "inverted_bottleneck0_1_0/Conv/weights/Initializer/random_uniform/min"
  attr {
    key: "T"
    value {
      type: DT_FLOAT
    }
  }
  attr {
    key: "_class"
    value {
      list {
        s: "loc:@inverted_bottleneck0_1_0/Conv/weights"
      }
    }
  }
}
node {
  name: "inverted_bottleneck0_1_0/Conv/weights/Initializer/random_uniform/mul"
  op: "Mul"
  input: "inverted_bottleneck0_1_0/Conv/weights/Initializer/random_uniform/RandomUniform"
  input: "inverted_bottleneck0_1_0/Conv/weights/Initializer/random_uniform/sub"
  attr {
    key: "T"
    value {
      type: DT_FLOAT
    }
  }
  attr {
    key: "_class"
    value {
      list {
        s: "loc:@inverted_bottleneck0_1_0/Conv/weights"
      }
    }
  }
}
node {
  name: "inverted_bottleneck0_1_0/Conv/weights/Initializer/random_uniform"
  op: "Add"
  input: "inverted_bottleneck0_1_0/Conv/weights/Initializer/random_uniform/mul"
  input: "inverted_bottleneck0_1_0/Conv/weights/Initializer/random_uniform/min"
  attr {
    key: "T"
    value {
      type: DT_FLOAT
    }
  }
  attr {
    key: "_class"
    value {
      list {
        s: "loc:@inverted_bottleneck0_1_0/Conv/weights"
      }
    }
  }
}
node {
  name: "inverted_bottleneck0_1_0/Conv/weights"
  op: "VariableV2"
  attr {
    key: "_class"
    value {
      list {
        s: "loc:@inverted_bottleneck0_1_0/Conv/weights"
      }
    }
  }
  attr {
    key: "container"
    value {
      s: ""
    }
  }
  attr {
    key: "dtype"
    value {
      type: DT_FLOAT
    }
  }
  attr {
    key: "shape"
    value {
      shape {
        dim {
          size: 1
        }
        dim {
          size: 1
        }
        dim {
          size: 64
        }
        dim {
          size: 64
        }
      }
    }
  }
  attr {
    key: "shared_name"
    value {
      s: ""
    }
  }
}
node {
  name: "inverted_bottleneck0_1_0/Conv/weights/Assign"
  op: "Assign"
  input: "inverted_bottleneck0_1_0/Conv/weights"
  input: "inverted_bottleneck0_1_0/Conv/weights/Initializer/random_uniform"
  attr {
    key: "T"
    value {
      type: DT_FLOAT
    }
  }
  attr {
    key: "_class"
    value {
      list {
        s: "loc:@inverted_bottleneck0_1_0/Conv/weights"
      }
    }
  }
  attr {
    key: "use_locking"
    value {
      b: true
    }
  }
  attr {
    key: "validate_shape"
    value {
      b: true
    }
  }
}
node {
  name: "inverted_bottleneck0_1_0/Conv/weights/read"
  op: "Identity"
  input: "inverted_bottleneck0_1_0/Conv/weights"
  attr {
    key: "T"
    value {
      type: DT_FLOAT
    }
  }
  attr {
    key: "_class"
    value {
      list {
        s: "loc:@inverted_bottleneck0_1_0/Conv/weights"
      }
    }
  }
}
node {
  name: "inverted_bottleneck0_1_0/Conv/dilation_rate"
  op: "Const"
  attr {
    key: "dtype"
    value {
      type: DT_INT32
    }
  }
  attr {
    key: "value"
    value {
      tensor {
        dtype: DT_INT32
        tensor_shape {
          dim {
            size: 2
          }
        }
        tensor_content: "\001\000\000\000\001\000\000\000"
      }
    }
  }
}
node {
  name: "inverted_bottleneck0_1_0/Conv/Conv2D"
  op: "Conv2D"
  input: "init_conv/Conv/Relu"
  input: "inverted_bottleneck0_1_0/Conv/weights/read"
  attr {
    key: "T"
    value {
      type: DT_FLOAT
    }
  }
  attr {
    key: "data_format"
    value {
      s: "NHWC"
    }
  }
  attr {
    key: "dilations"
    value {
      list {
        i: 1
        i: 1
        i: 1
        i: 1
      }
    }
  }
  attr {
    key: "padding"
    value {
      s: "SAME"
    }
  }
  attr {
    key: "strides"
    value {
      list {
        i: 1
        i: 1
        i: 1
        i: 1
      }
    }
  }
  attr {
    key: "use_cudnn_on_gpu"
    value {
      b: true
    }
  }
}
node {
  name: "inverted_bottleneck0_1_0/Conv/BatchNorm/Const"
  op: "Const"
  attr {
    key: "dtype"
    value {
      type: DT_FLOAT
    }
  }
  attr {
    key: "value"
    value {
      tensor {
        dtype: DT_FLOAT
        tensor_shape {
          dim {
            size: 64
          }
        }
        float_val: 1.0
      }
    }
  }
}
node {
  name: "inverted_bottleneck0_1_0/Conv/BatchNorm/beta/Initializer/zeros/shape_as_tensor"
  op: "Const"
  attr {
    key: "_class"
    value {
      list {
        s: "loc:@inverted_bottleneck0_1_0/Conv/BatchNorm/beta"
      }
    }
  }
  attr {
    key: "dtype"
    value {
      type: DT_INT32
    }
  }
  attr {
    key: "value"
    value {
      tensor {
        dtype: DT_INT32
        tensor_shape {
          dim {
            size: 1
          }
        }
        int_val: 64
      }
    }
  }
}
node {
  name: "inverted_bottleneck0_1_0/Conv/BatchNorm/beta/Initializer/zeros/Const"
  op: "Const"
  attr {
    key: "_class"
    value {
      list {
        s: "loc:@inverted_bottleneck0_1_0/Conv/BatchNorm/beta"
      }
    }
  }
  attr {
    key: "dtype"
    value {
      type: DT_FLOAT
    }
  }
  attr {
    key: "value"
    value {
      tensor {
        dtype: DT_FLOAT
        tensor_shape {
        }
        float_val: 0.0
      }
    }
  }
}
node {
  name: "inverted_bottleneck0_1_0/Conv/BatchNorm/beta/Initializer/zeros"
  op: "Fill"
  input: "inverted_bottleneck0_1_0/Conv/BatchNorm/beta/Initializer/zeros/shape_as_tensor"
  input: "inverted_bottleneck0_1_0/Conv/BatchNorm/beta/Initializer/zeros/Const"
  attr {
    key: "T"
    value {
      type: DT_FLOAT
    }
  }
  attr {
    key: "_class"
    value {
      list {
        s: "loc:@inverted_bottleneck0_1_0/Conv/BatchNorm/beta"
      }
    }
  }
  attr {
    key: "index_type"
    value {
      type: DT_INT32
    }
  }
}
node {
  name: "inverted_bottleneck0_1_0/Conv/BatchNorm/beta"
  op: "VariableV2"
  attr {
    key: "_class"
    value {
      list {
        s: "loc:@inverted_bottleneck0_1_0/Conv/BatchNorm/beta"
      }
    }
  }
  attr {
    key: "container"
    value {
      s: ""
    }
  }
  attr {
    key: "dtype"
    value {
      type: DT_FLOAT
    }
  }
  attr {
    key: "shape"
    value {
      shape {
        dim {
          size: 64
        }
      }
    }
  }
  attr {
    key: "shared_name"
    value {
      s: ""
    }
  }
}
node {
  name: "inverted_bottleneck0_1_0/Conv/BatchNorm/beta/Assign"
  op: "Assign"
  input: "inverted_bottleneck0_1_0/Conv/BatchNorm/beta"
  input: "inverted_bottleneck0_1_0/Conv/BatchNorm/beta/Initializer/zeros"
  attr {
    key: "T"
    value {
      type: DT_FLOAT
    }
  }
  attr {
    key: "_class"
    value {
      list {
        s: "loc:@inverted_bottleneck0_1_0/Conv/BatchNorm/beta"
      }
    }
  }
  attr {
    key: "use_locking"
    value {
      b: true
    }
  }
  attr {
    key: "validate_shape"
    value {
      b: true
    }
  }
}
node {
  name: "inverted_bottleneck0_1_0/Conv/BatchNorm/beta/read"
  op: "Identity"
  input: "inverted_bottleneck0_1_0/Conv/BatchNorm/beta"
  attr {
    key: "T"
    value {
      type: DT_FLOAT
    }
  }
  attr {
    key: "_class"
    value {
      list {
        s: "loc:@inverted_bottleneck0_1_0/Conv/BatchNorm/beta"
      }
    }
  }
}
node {
  name: "inverted_bottleneck0_1_0/Conv/BatchNorm/moving_mean/Initializer/zeros/shape_as_tensor"
  op: "Const"
  attr {
    key: "_class"
    value {
      list {
        s: "loc:@inverted_bottleneck0_1_0/Conv/BatchNorm/moving_mean"
      }
    }
  }
  attr {
    key: "dtype"
    value {
      type: DT_INT32
    }
  }
  attr {
    key: "value"
    value {
      tensor {
        dtype: DT_INT32
        tensor_shape {
          dim {
            size: 1
          }
        }
        int_val: 64
      }
    }
  }
}
node {
  name: "inverted_bottleneck0_1_0/Conv/BatchNorm/moving_mean/Initializer/zeros/Const"
  op: "Const"
  attr {
    key: "_class"
    value {
      list {
        s: "loc:@inverted_bottleneck0_1_0/Conv/BatchNorm/moving_mean"
      }
    }
  }
  attr {
    key: "dtype"
    value {
      type: DT_FLOAT
    }
  }
  attr {
    key: "value"
    value {
      tensor {
        dtype: DT_FLOAT
        tensor_shape {
        }
        float_val: 0.0
      }
    }
  }
}
node {
  name: "inverted_bottleneck0_1_0/Conv/BatchNorm/moving_mean/Initializer/zeros"
  op: "Fill"
  input: "inverted_bottleneck0_1_0/Conv/BatchNorm/moving_mean/Initializer/zeros/shape_as_tensor"
  input: "inverted_bottleneck0_1_0/Conv/BatchNorm/moving_mean/Initializer/zeros/Const"
  attr {
    key: "T"
    value {
      type: DT_FLOAT
    }
  }
  attr {
    key: "_class"
    value {
      list {
        s: "loc:@inverted_bottleneck0_1_0/Conv/BatchNorm/moving_mean"
      }
    }
  }
  attr {
    key: "index_type"
    value {
      type: DT_INT32
    }
  }
}
node {
  name: "inverted_bottleneck0_1_0/Conv/BatchNorm/moving_mean"
  op: "VariableV2"
  attr {
    key: "_class"
    value {
      list {
        s: "loc:@inverted_bottleneck0_1_0/Conv/BatchNorm/moving_mean"
      }
    }
  }
  attr {
    key: "container"
    value {
      s: ""
    }
  }
  attr {
    key: "dtype"
    value {
      type: DT_FLOAT
    }
  }
  attr {
    key: "shape"
    value {
      shape {
        dim {
          size: 64
        }
      }
    }
  }
  attr {
    key: "shared_name"
    value {
      s: ""
    }
  }
}
node {
  name: "inverted_bottleneck0_1_0/Conv/BatchNorm/moving_mean/Assign"
  op: "Assign"
  input: "inverted_bottleneck0_1_0/Conv/BatchNorm/moving_mean"
  input: "inverted_bottleneck0_1_0/Conv/BatchNorm/moving_mean/Initializer/zeros"
  attr {
    key: "T"
    value {
      type: DT_FLOAT
    }
  }
  attr {
    key: "_class"
    value {
      list {
        s: "loc:@inverted_bottleneck0_1_0/Conv/BatchNorm/moving_mean"
      }
    }
  }
  attr {
    key: "use_locking"
    value {
      b: true
    }
  }
  attr {
    key: "validate_shape"
    value {
      b: true
    }
  }
}
node {
  name: "inverted_bottleneck0_1_0/Conv/BatchNorm/moving_mean/read"
  op: "Identity"
  input: "inverted_bottleneck0_1_0/Conv/BatchNorm/moving_mean"
  attr {
    key: "T"
    value {
      type: DT_FLOAT
    }
  }
  attr {
    key: "_class"
    value {
      list {
        s: "loc:@inverted_bottleneck0_1_0/Conv/BatchNorm/moving_mean"
      }
    }
  }
}
node {
  name: "inverted_bottleneck0_1_0/Conv/BatchNorm/moving_variance/Initializer/ones/shape_as_tensor"
  op: "Const"
  attr {
    key: "_class"
    value {
      list {
        s: "loc:@inverted_bottleneck0_1_0/Conv/BatchNorm/moving_variance"
      }
    }
  }
  attr {
    key: "dtype"
    value {
      type: DT_INT32
    }
  }
  attr {
    key: "value"
    value {
      tensor {
        dtype: DT_INT32
        tensor_shape {
          dim {
            size: 1
          }
        }
        int_val: 64
      }
    }
  }
}
node {
  name: "inverted_bottleneck0_1_0/Conv/BatchNorm/moving_variance/Initializer/ones/Const"
  op: "Const"
  attr {
    key: "_class"
    value {
      list {
        s: "loc:@inverted_bottleneck0_1_0/Conv/BatchNorm/moving_variance"
      }
    }
  }
  attr {
    key: "dtype"
    value {
      type: DT_FLOAT
    }
  }
  attr {
    key: "value"
    value {
      tensor {
        dtype: DT_FLOAT
        tensor_shape {
        }
        float_val: 1.0
      }
    }
  }
}
node {
  name: "inverted_bottleneck0_1_0/Conv/BatchNorm/moving_variance/Initializer/ones"
  op: "Fill"
  input: "inverted_bottleneck0_1_0/Conv/BatchNorm/moving_variance/Initializer/ones/shape_as_tensor"
  input: "inverted_bottleneck0_1_0/Conv/BatchNorm/moving_variance/Initializer/ones/Const"
  attr {
    key: "T"
    value {
      type: DT_FLOAT
    }
  }
  attr {
    key: "_class"
    value {
      list {
        s: "loc:@inverted_bottleneck0_1_0/Conv/BatchNorm/moving_variance"
      }
    }
  }
  attr {
    key: "index_type"
    value {
      type: DT_INT32
    }
  }
}
node {
  name: "inverted_bottleneck0_1_0/Conv/BatchNorm/moving_variance"
  op: "VariableV2"
  attr {
    key: "_class"
    value {
      list {
        s: "loc:@inverted_bottleneck0_1_0/Conv/BatchNorm/moving_variance"
      }
    }
  }
  attr {
    key: "container"
    value {
      s: ""
    }
  }
  attr {
    key: "dtype"
    value {
      type: DT_FLOAT
    }
  }
  attr {
    key: "shape"
    value {
      shape {
        dim {
          size: 64
        }
      }
    }
  }
  attr {
    key: "shared_name"
    value {
      s: ""
    }
  }
}
node {
  name: "inverted_bottleneck0_1_0/Conv/BatchNorm/moving_variance/Assign"
  op: "Assign"
  input: "inverted_bottleneck0_1_0/Conv/BatchNorm/moving_variance"
  input: "inverted_bottleneck0_1_0/Conv/BatchNorm/moving_variance/Initializer/ones"
  attr {
    key: "T"
    value {
      type: DT_FLOAT
    }
  }
  attr {
    key: "_class"
    value {
      list {
        s: "loc:@inverted_bottleneck0_1_0/Conv/BatchNorm/moving_variance"
      }
    }
  }
  attr {
    key: "use_locking"
    value {
      b: true
    }
  }
  attr {
    key: "validate_shape"
    value {
      b: true
    }
  }
}
node {
  name: "inverted_bottleneck0_1_0/Conv/BatchNorm/moving_variance/read"
  op: "Identity"
  input: "inverted_bottleneck0_1_0/Conv/BatchNorm/moving_variance"
  attr {
    key: "T"
    value {
      type: DT_FLOAT
    }
  }
  attr {
    key: "_class"
    value {
      list {
        s: "loc:@inverted_bottleneck0_1_0/Conv/BatchNorm/moving_variance"
      }
    }
  }
}
node {
  name: "inverted_bottleneck0_1_0/Conv/BatchNorm/Const_1"
  op: "Const"
  attr {
    key: "dtype"
    value {
      type: DT_FLOAT
    }
  }
  attr {
    key: "value"
    value {
      tensor {
        dtype: DT_FLOAT
        tensor_shape {
          dim {
          }
        }
      }
    }
  }
}
node {
  name: "inverted_bottleneck0_1_0/Conv/BatchNorm/Const_2"
  op: "Const"
  attr {
    key: "dtype"
    value {
      type: DT_FLOAT
    }
  }
  attr {
    key: "value"
    value {
      tensor {
        dtype: DT_FLOAT
        tensor_shape {
          dim {
          }
        }
      }
    }
  }
}
node {
  name: "inverted_bottleneck0_1_0/Conv/BatchNorm/FusedBatchNorm"
  op: "FusedBatchNorm"
  input: "inverted_bottleneck0_1_0/Conv/Conv2D"
  input: "inverted_bottleneck0_1_0/Conv/BatchNorm/Const"
  input: "inverted_bottleneck0_1_0/Conv/BatchNorm/beta/read"
  input: "inverted_bottleneck0_1_0/Conv/BatchNorm/Const_1"
  input: "inverted_bottleneck0_1_0/Conv/BatchNorm/Const_2"
  attr {
    key: "T"
    value {
      type: DT_FLOAT
    }
  }
  attr {
    key: "data_format"
    value {
      s: "NHWC"
    }
  }
  attr {
    key: "epsilon"
    value {
      f: 0.0010000000474974513
    }
  }
  attr {
    key: "is_training"
    value {
      b: true
    }
  }
}
node {
  name: "inverted_bottleneck0_1_0/Conv/BatchNorm/Const_3"
  op: "Const"
  attr {
    key: "dtype"
    value {
      type: DT_FLOAT
    }
  }
  attr {
    key: "value"
    value {
      tensor {
        dtype: DT_FLOAT
        tensor_shape {
        }
        float_val: 0.0010000000474974513
      }
    }
  }
}
node {
  name: "inverted_bottleneck0_1_0/Conv/BatchNorm/AssignMovingAvg/read"
  op: "Identity"
  input: "inverted_bottleneck0_1_0/Conv/BatchNorm/moving_mean"
  attr {
    key: "T"
    value {
      type: DT_FLOAT
    }
  }
  attr {
    key: "_class"
    value {
      list {
        s: "loc:@inverted_bottleneck0_1_0/Conv/BatchNorm/moving_mean"
      }
    }
  }
}
node {
  name: "inverted_bottleneck0_1_0/Conv/BatchNorm/AssignMovingAvg/Sub"
  op: "Sub"
  input: "inverted_bottleneck0_1_0/Conv/BatchNorm/AssignMovingAvg/read"
  input: "inverted_bottleneck0_1_0/Conv/BatchNorm/FusedBatchNorm:1"
  attr {
    key: "T"
    value {
      type: DT_FLOAT
    }
  }
  attr {
    key: "_class"
    value {
      list {
        s: "loc:@inverted_bottleneck0_1_0/Conv/BatchNorm/moving_mean"
      }
    }
  }
}
node {
  name: "inverted_bottleneck0_1_0/Conv/BatchNorm/AssignMovingAvg/Mul"
  op: "Mul"
  input: "inverted_bottleneck0_1_0/Conv/BatchNorm/AssignMovingAvg/Sub"
  input: "inverted_bottleneck0_1_0/Conv/BatchNorm/Const_3"
  attr {
    key: "T"
    value {
      type: DT_FLOAT
    }
  }
  attr {
    key: "_class"
    value {
      list {
        s: "loc:@inverted_bottleneck0_1_0/Conv/BatchNorm/moving_mean"
      }
    }
  }
}
node {
  name: "inverted_bottleneck0_1_0/Conv/BatchNorm/AssignMovingAvg"
  op: "AssignSub"
  input: "inverted_bottleneck0_1_0/Conv/BatchNorm/moving_mean"
  input: "inverted_bottleneck0_1_0/Conv/BatchNorm/AssignMovingAvg/Mul"
  attr {
    key: "T"
    value {
      type: DT_FLOAT
    }
  }
  attr {
    key: "_class"
    value {
      list {
        s: "loc:@inverted_bottleneck0_1_0/Conv/BatchNorm/moving_mean"
      }
    }
  }
  attr {
    key: "use_locking"
    value {
      b: false
    }
  }
}
node {
  name: "inverted_bottleneck0_1_0/Conv/BatchNorm/AssignMovingAvg_1/read"
  op: "Identity"
  input: "inverted_bottleneck0_1_0/Conv/BatchNorm/moving_variance"
  attr {
    key: "T"
    value {
      type: DT_FLOAT
    }
  }
  attr {
    key: "_class"
    value {
      list {
        s: "loc:@inverted_bottleneck0_1_0/Conv/BatchNorm/moving_variance"
      }
    }
  }
}
node {
  name: "inverted_bottleneck0_1_0/Conv/BatchNorm/AssignMovingAvg_1/Sub"
  op: "Sub"
  input: "inverted_bottleneck0_1_0/Conv/BatchNorm/AssignMovingAvg_1/read"
  input: "inverted_bottleneck0_1_0/Conv/BatchNorm/FusedBatchNorm:2"
  attr {
    key: "T"
    value {
      type: DT_FLOAT
    }
  }
  attr {
    key: "_class"
    value {
      list {
        s: "loc:@inverted_bottleneck0_1_0/Conv/BatchNorm/moving_variance"
      }
    }
  }
}
node {
  name: "inverted_bottleneck0_1_0/Conv/BatchNorm/AssignMovingAvg_1/Mul"
  op: "Mul"
  input: "inverted_bottleneck0_1_0/Conv/BatchNorm/AssignMovingAvg_1/Sub"
  input: "inverted_bottleneck0_1_0/Conv/BatchNorm/Const_3"
  attr {
    key: "T"
    value {
      type: DT_FLOAT
    }
  }
  attr {
    key: "_class"
    value {
      list {
        s: "loc:@inverted_bottleneck0_1_0/Conv/BatchNorm/moving_variance"
      }
    }
  }
}
node {
  name: "inverted_bottleneck0_1_0/Conv/BatchNorm/AssignMovingAvg_1"
  op: "AssignSub"
  input: "inverted_bottleneck0_1_0/Conv/BatchNorm/moving_variance"
  input: "inverted_bottleneck0_1_0/Conv/BatchNorm/AssignMovingAvg_1/Mul"
  attr {
    key: "T"
    value {
      type: DT_FLOAT
    }
  }
  attr {
    key: "_class"
    value {
      list {
        s: "loc:@inverted_bottleneck0_1_0/Conv/BatchNorm/moving_variance"
      }
    }
  }
  attr {
    key: "use_locking"
    value {
      b: false
    }
  }
}
node {
  name: "inverted_bottleneck0_1_0/Conv/Relu6"
  op: "Relu6"
  input: "inverted_bottleneck0_1_0/Conv/BatchNorm/FusedBatchNorm"
  attr {
    key: "T"
    value {
      type: DT_FLOAT
    }
  }
}
node {
  name: "inverted_bottleneck0_1_0/SeparableConv2d/depthwise_weights/Initializer/random_uniform/shape"
  op: "Const"
  attr {
    key: "_class"
    value {
      list {
        s: "loc:@inverted_bottleneck0_1_0/SeparableConv2d/depthwise_weights"
      }
    }
  }
  attr {
    key: "dtype"
    value {
      type: DT_INT32
    }
  }
  attr {
    key: "value"
    value {
      tensor {
        dtype: DT_INT32
        tensor_shape {
          dim {
            size: 4
          }
        }
        tensor_content: "\003\000\000\000\003\000\000\000@\000\000\000\001\000\000\000"
      }
    }
  }
}
node {
  name: "inverted_bottleneck0_1_0/SeparableConv2d/depthwise_weights/Initializer/random_uniform/min"
  op: "Const"
  attr {
    key: "_class"
    value {
      list {
        s: "loc:@inverted_bottleneck0_1_0/SeparableConv2d/depthwise_weights"
      }
    }
  }
  attr {
    key: "dtype"
    value {
      type: DT_FLOAT
    }
  }
  attr {
    key: "value"
    value {
      tensor {
        dtype: DT_FLOAT
        tensor_shape {
        }
        float_val: -0.10127393901348114
      }
    }
  }
}
node {
  name: "inverted_bottleneck0_1_0/SeparableConv2d/depthwise_weights/Initializer/random_uniform/max"
  op: "Const"
  attr {
    key: "_class"
    value {
      list {
        s: "loc:@inverted_bottleneck0_1_0/SeparableConv2d/depthwise_weights"
      }
    }
  }
  attr {
    key: "dtype"
    value {
      type: DT_FLOAT
    }
  }
  attr {
    key: "value"
    value {
      tensor {
        dtype: DT_FLOAT
        tensor_shape {
        }
        float_val: 0.10127393901348114
      }
    }
  }
}
node {
  name: "inverted_bottleneck0_1_0/SeparableConv2d/depthwise_weights/Initializer/random_uniform/RandomUniform"
  op: "RandomUniform"
  input: "inverted_bottleneck0_1_0/SeparableConv2d/depthwise_weights/Initializer/random_uniform/shape"
  attr {
    key: "T"
    value {
      type: DT_INT32
    }
  }
  attr {
    key: "_class"
    value {
      list {
        s: "loc:@inverted_bottleneck0_1_0/SeparableConv2d/depthwise_weights"
      }
    }
  }
  attr {
    key: "dtype"
    value {
      type: DT_FLOAT
    }
  }
  attr {
    key: "seed"
    value {
      i: 0
    }
  }
  attr {
    key: "seed2"
    value {
      i: 0
    }
  }
}
node {
  name: "inverted_bottleneck0_1_0/SeparableConv2d/depthwise_weights/Initializer/random_uniform/sub"
  op: "Sub"
  input: "inverted_bottleneck0_1_0/SeparableConv2d/depthwise_weights/Initializer/random_uniform/max"
  input: "inverted_bottleneck0_1_0/SeparableConv2d/depthwise_weights/Initializer/random_uniform/min"
  attr {
    key: "T"
    value {
      type: DT_FLOAT
    }
  }
  attr {
    key: "_class"
    value {
      list {
        s: "loc:@inverted_bottleneck0_1_0/SeparableConv2d/depthwise_weights"
      }
    }
  }
}
node {
  name: "inverted_bottleneck0_1_0/SeparableConv2d/depthwise_weights/Initializer/random_uniform/mul"
  op: "Mul"
  input: "inverted_bottleneck0_1_0/SeparableConv2d/depthwise_weights/Initializer/random_uniform/RandomUniform"
  input: "inverted_bottleneck0_1_0/SeparableConv2d/depthwise_weights/Initializer/random_uniform/sub"
  attr {
    key: "T"
    value {
      type: DT_FLOAT
    }
  }
  attr {
    key: "_class"
    value {
      list {
        s: "loc:@inverted_bottleneck0_1_0/SeparableConv2d/depthwise_weights"
      }
    }
  }
}
node {
  name: "inverted_bottleneck0_1_0/SeparableConv2d/depthwise_weights/Initializer/random_uniform"
  op: "Add"
  input: "inverted_bottleneck0_1_0/SeparableConv2d/depthwise_weights/Initializer/random_uniform/mul"
  input: "inverted_bottleneck0_1_0/SeparableConv2d/depthwise_weights/Initializer/random_uniform/min"
  attr {
    key: "T"
    value {
      type: DT_FLOAT
    }
  }
  attr {
    key: "_class"
    value {
      list {
        s: "loc:@inverted_bottleneck0_1_0/SeparableConv2d/depthwise_weights"
      }
    }
  }
}
node {
  name: "inverted_bottleneck0_1_0/SeparableConv2d/depthwise_weights"
  op: "VariableV2"
  attr {
    key: "_class"
    value {
      list {
        s: "loc:@inverted_bottleneck0_1_0/SeparableConv2d/depthwise_weights"
      }
    }
  }
  attr {
    key: "container"
    value {
      s: ""
    }
  }
  attr {
    key: "dtype"
    value {
      type: DT_FLOAT
    }
  }
  attr {
    key: "shape"
    value {
      shape {
        dim {
          size: 3
        }
        dim {
          size: 3
        }
        dim {
          size: 64
        }
        dim {
          size: 1
        }
      }
    }
  }
  attr {
    key: "shared_name"
    value {
      s: ""
    }
  }
}
node {
  name: "inverted_bottleneck0_1_0/SeparableConv2d/depthwise_weights/Assign"
  op: "Assign"
  input: "inverted_bottleneck0_1_0/SeparableConv2d/depthwise_weights"
  input: "inverted_bottleneck0_1_0/SeparableConv2d/depthwise_weights/Initializer/random_uniform"
  attr {
    key: "T"
    value {
      type: DT_FLOAT
    }
  }
  attr {
    key: "_class"
    value {
      list {
        s: "loc:@inverted_bottleneck0_1_0/SeparableConv2d/depthwise_weights"
      }
    }
  }
  attr {
    key: "use_locking"
    value {
      b: true
    }
  }
  attr {
    key: "validate_shape"
    value {
      b: true
    }
  }
}
node {
  name: "inverted_bottleneck0_1_0/SeparableConv2d/depthwise_weights/read"
  op: "Identity"
  input: "inverted_bottleneck0_1_0/SeparableConv2d/depthwise_weights"
  attr {
    key: "T"
    value {
      type: DT_FLOAT
    }
  }
  attr {
    key: "_class"
    value {
      list {
        s: "loc:@inverted_bottleneck0_1_0/SeparableConv2d/depthwise_weights"
      }
    }
  }
}
node {
  name: "inverted_bottleneck0_1_0/SeparableConv2d/depthwise/Shape"
  op: "Const"
  attr {
    key: "dtype"
    value {
      type: DT_INT32
    }
  }
  attr {
    key: "value"
    value {
      tensor {
        dtype: DT_INT32
        tensor_shape {
          dim {
            size: 4
          }
        }
        tensor_content: "\003\000\000\000\003\000\000\000@\000\000\000\001\000\000\000"
      }
    }
  }
}
node {
  name: "inverted_bottleneck0_1_0/SeparableConv2d/depthwise/dilation_rate"
  op: "Const"
  attr {
    key: "dtype"
    value {
      type: DT_INT32
    }
  }
  attr {
    key: "value"
    value {
      tensor {
        dtype: DT_INT32
        tensor_shape {
          dim {
            size: 2
          }
        }
        tensor_content: "\001\000\000\000\001\000\000\000"
      }
    }
  }
}
node {
  name: "inverted_bottleneck0_1_0/SeparableConv2d/depthwise"
  op: "DepthwiseConv2dNative"
  input: "inverted_bottleneck0_1_0/Conv/Relu6"
  input: "inverted_bottleneck0_1_0/SeparableConv2d/depthwise_weights/read"
  attr {
    key: "T"
    value {
      type: DT_FLOAT
    }
  }
  attr {
    key: "data_format"
    value {
      s: "NHWC"
    }
  }
  attr {
    key: "dilations"
    value {
      list {
        i: 1
        i: 1
        i: 1
        i: 1
      }
    }
  }
  attr {
    key: "padding"
    value {
      s: "SAME"
    }
  }
  attr {
    key: "strides"
    value {
      list {
        i: 1
        i: 1
        i: 1
        i: 1
      }
    }
  }
}
node {
  name: "inverted_bottleneck0_1_0/SeparableConv2d/BatchNorm/Const"
  op: "Const"
  attr {
    key: "dtype"
    value {
      type: DT_FLOAT
    }
  }
  attr {
    key: "value"
    value {
      tensor {
        dtype: DT_FLOAT
        tensor_shape {
          dim {
            size: 64
          }
        }
        float_val: 1.0
      }
    }
  }
}
node {
  name: "inverted_bottleneck0_1_0/SeparableConv2d/BatchNorm/beta/Initializer/zeros/shape_as_tensor"
  op: "Const"
  attr {
    key: "_class"
    value {
      list {
        s: "loc:@inverted_bottleneck0_1_0/SeparableConv2d/BatchNorm/beta"
      }
    }
  }
  attr {
    key: "dtype"
    value {
      type: DT_INT32
    }
  }
  attr {
    key: "value"
    value {
      tensor {
        dtype: DT_INT32
        tensor_shape {
          dim {
            size: 1
          }
        }
        int_val: 64
      }
    }
  }
}
node {
  name: "inverted_bottleneck0_1_0/SeparableConv2d/BatchNorm/beta/Initializer/zeros/Const"
  op: "Const"
  attr {
    key: "_class"
    value {
      list {
        s: "loc:@inverted_bottleneck0_1_0/SeparableConv2d/BatchNorm/beta"
      }
    }
  }
  attr {
    key: "dtype"
    value {
      type: DT_FLOAT
    }
  }
  attr {
    key: "value"
    value {
      tensor {
        dtype: DT_FLOAT
        tensor_shape {
        }
        float_val: 0.0
      }
    }
  }
}
node {
  name: "inverted_bottleneck0_1_0/SeparableConv2d/BatchNorm/beta/Initializer/zeros"
  op: "Fill"
  input: "inverted_bottleneck0_1_0/SeparableConv2d/BatchNorm/beta/Initializer/zeros/shape_as_tensor"
  input: "inverted_bottleneck0_1_0/SeparableConv2d/BatchNorm/beta/Initializer/zeros/Const"
  attr {
    key: "T"
    value {
      type: DT_FLOAT
    }
  }
  attr {
    key: "_class"
    value {
      list {
        s: "loc:@inverted_bottleneck0_1_0/SeparableConv2d/BatchNorm/beta"
      }
    }
  }
  attr {
    key: "index_type"
    value {
      type: DT_INT32
    }
  }
}
node {
  name: "inverted_bottleneck0_1_0/SeparableConv2d/BatchNorm/beta"
  op: "VariableV2"
  attr {
    key: "_class"
    value {
      list {
        s: "loc:@inverted_bottleneck0_1_0/SeparableConv2d/BatchNorm/beta"
      }
    }
  }
  attr {
    key: "container"
    value {
      s: ""
    }
  }
  attr {
    key: "dtype"
    value {
      type: DT_FLOAT
    }
  }
  attr {
    key: "shape"
    value {
      shape {
        dim {
          size: 64
        }
      }
    }
  }
  attr {
    key: "shared_name"
    value {
      s: ""
    }
  }
}
node {
  name: "inverted_bottleneck0_1_0/SeparableConv2d/BatchNorm/beta/Assign"
  op: "Assign"
  input: "inverted_bottleneck0_1_0/SeparableConv2d/BatchNorm/beta"
  input: "inverted_bottleneck0_1_0/SeparableConv2d/BatchNorm/beta/Initializer/zeros"
  attr {
    key: "T"
    value {
      type: DT_FLOAT
    }
  }
  attr {
    key: "_class"
    value {
      list {
        s: "loc:@inverted_bottleneck0_1_0/SeparableConv2d/BatchNorm/beta"
      }
    }
  }
  attr {
    key: "use_locking"
    value {
      b: true
    }
  }
  attr {
    key: "validate_shape"
    value {
      b: true
    }
  }
}
node {
  name: "inverted_bottleneck0_1_0/SeparableConv2d/BatchNorm/beta/read"
  op: "Identity"
  input: "inverted_bottleneck0_1_0/SeparableConv2d/BatchNorm/beta"
  attr {
    key: "T"
    value {
      type: DT_FLOAT
    }
  }
  attr {
    key: "_class"
    value {
      list {
        s: "loc:@inverted_bottleneck0_1_0/SeparableConv2d/BatchNorm/beta"
      }
    }
  }
}
node {
  name: "inverted_bottleneck0_1_0/SeparableConv2d/BatchNorm/moving_mean/Initializer/zeros/shape_as_tensor"
  op: "Const"
  attr {
    key: "_class"
    value {
      list {
        s: "loc:@inverted_bottleneck0_1_0/SeparableConv2d/BatchNorm/moving_mean"
      }
    }
  }
  attr {
    key: "dtype"
    value {
      type: DT_INT32
    }
  }
  attr {
    key: "value"
    value {
      tensor {
        dtype: DT_INT32
        tensor_shape {
          dim {
            size: 1
          }
        }
        int_val: 64
      }
    }
  }
}
node {
  name: "inverted_bottleneck0_1_0/SeparableConv2d/BatchNorm/moving_mean/Initializer/zeros/Const"
  op: "Const"
  attr {
    key: "_class"
    value {
      list {
        s: "loc:@inverted_bottleneck0_1_0/SeparableConv2d/BatchNorm/moving_mean"
      }
    }
  }
  attr {
    key: "dtype"
    value {
      type: DT_FLOAT
    }
  }
  attr {
    key: "value"
    value {
      tensor {
        dtype: DT_FLOAT
        tensor_shape {
        }
        float_val: 0.0
      }
    }
  }
}
node {
  name: "inverted_bottleneck0_1_0/SeparableConv2d/BatchNorm/moving_mean/Initializer/zeros"
  op: "Fill"
  input: "inverted_bottleneck0_1_0/SeparableConv2d/BatchNorm/moving_mean/Initializer/zeros/shape_as_tensor"
  input: "inverted_bottleneck0_1_0/SeparableConv2d/BatchNorm/moving_mean/Initializer/zeros/Const"
  attr {
    key: "T"
    value {
      type: DT_FLOAT
    }
  }
  attr {
    key: "_class"
    value {
      list {
        s: "loc:@inverted_bottleneck0_1_0/SeparableConv2d/BatchNorm/moving_mean"
      }
    }
  }
  attr {
    key: "index_type"
    value {
      type: DT_INT32
    }
  }
}
node {
  name: "inverted_bottleneck0_1_0/SeparableConv2d/BatchNorm/moving_mean"
  op: "VariableV2"
  attr {
    key: "_class"
    value {
      list {
        s: "loc:@inverted_bottleneck0_1_0/SeparableConv2d/BatchNorm/moving_mean"
      }
    }
  }
  attr {
    key: "container"
    value {
      s: ""
    }
  }
  attr {
    key: "dtype"
    value {
      type: DT_FLOAT
    }
  }
  attr {
    key: "shape"
    value {
      shape {
        dim {
          size: 64
        }
      }
    }
  }
  attr {
    key: "shared_name"
    value {
      s: ""
    }
  }
}
node {
  name: "inverted_bottleneck0_1_0/SeparableConv2d/BatchNorm/moving_mean/Assign"
  op: "Assign"
  input: "inverted_bottleneck0_1_0/SeparableConv2d/BatchNorm/moving_mean"
  input: "inverted_bottleneck0_1_0/SeparableConv2d/BatchNorm/moving_mean/Initializer/zeros"
  attr {
    key: "T"
    value {
      type: DT_FLOAT
    }
  }
  attr {
    key: "_class"
    value {
      list {
        s: "loc:@inverted_bottleneck0_1_0/SeparableConv2d/BatchNorm/moving_mean"
      }
    }
  }
  attr {
    key: "use_locking"
    value {
      b: true
    }
  }
  attr {
    key: "validate_shape"
    value {
      b: true
    }
  }
}
node {
  name: "inverted_bottleneck0_1_0/SeparableConv2d/BatchNorm/moving_mean/read"
  op: "Identity"
  input: "inverted_bottleneck0_1_0/SeparableConv2d/BatchNorm/moving_mean"
  attr {
    key: "T"
    value {
      type: DT_FLOAT
    }
  }
  attr {
    key: "_class"
    value {
      list {
        s: "loc:@inverted_bottleneck0_1_0/SeparableConv2d/BatchNorm/moving_mean"
      }
    }
  }
}
node {
  name: "inverted_bottleneck0_1_0/SeparableConv2d/BatchNorm/moving_variance/Initializer/ones/shape_as_tensor"
  op: "Const"
  attr {
    key: "_class"
    value {
      list {
        s: "loc:@inverted_bottleneck0_1_0/SeparableConv2d/BatchNorm/moving_variance"
      }
    }
  }
  attr {
    key: "dtype"
    value {
      type: DT_INT32
    }
  }
  attr {
    key: "value"
    value {
      tensor {
        dtype: DT_INT32
        tensor_shape {
          dim {
            size: 1
          }
        }
        int_val: 64
      }
    }
  }
}
node {
  name: "inverted_bottleneck0_1_0/SeparableConv2d/BatchNorm/moving_variance/Initializer/ones/Const"
  op: "Const"
  attr {
    key: "_class"
    value {
      list {
        s: "loc:@inverted_bottleneck0_1_0/SeparableConv2d/BatchNorm/moving_variance"
      }
    }
  }
  attr {
    key: "dtype"
    value {
      type: DT_FLOAT
    }
  }
  attr {
    key: "value"
    value {
      tensor {
        dtype: DT_FLOAT
        tensor_shape {
        }
        float_val: 1.0
      }
    }
  }
}
node {
  name: "inverted_bottleneck0_1_0/SeparableConv2d/BatchNorm/moving_variance/Initializer/ones"
  op: "Fill"
  input: "inverted_bottleneck0_1_0/SeparableConv2d/BatchNorm/moving_variance/Initializer/ones/shape_as_tensor"
  input: "inverted_bottleneck0_1_0/SeparableConv2d/BatchNorm/moving_variance/Initializer/ones/Const"
  attr {
    key: "T"
    value {
      type: DT_FLOAT
    }
  }
  attr {
    key: "_class"
    value {
      list {
        s: "loc:@inverted_bottleneck0_1_0/SeparableConv2d/BatchNorm/moving_variance"
      }
    }
  }
  attr {
    key: "index_type"
    value {
      type: DT_INT32
    }
  }
}
node {
  name: "inverted_bottleneck0_1_0/SeparableConv2d/BatchNorm/moving_variance"
  op: "VariableV2"
  attr {
    key: "_class"
    value {
      list {
        s: "loc:@inverted_bottleneck0_1_0/SeparableConv2d/BatchNorm/moving_variance"
      }
    }
  }
  attr {
    key: "container"
    value {
      s: ""
    }
  }
  attr {
    key: "dtype"
    value {
      type: DT_FLOAT
    }
  }
  attr {
    key: "shape"
    value {
      shape {
        dim {
          size: 64
        }
      }
    }
  }
  attr {
    key: "shared_name"
    value {
      s: ""
    }
  }
}
node {
  name: "inverted_bottleneck0_1_0/SeparableConv2d/BatchNorm/moving_variance/Assign"
  op: "Assign"
  input: "inverted_bottleneck0_1_0/SeparableConv2d/BatchNorm/moving_variance"
  input: "inverted_bottleneck0_1_0/SeparableConv2d/BatchNorm/moving_variance/Initializer/ones"
  attr {
    key: "T"
    value {
      type: DT_FLOAT
    }
  }
  attr {
    key: "_class"
    value {
      list {
        s: "loc:@inverted_bottleneck0_1_0/SeparableConv2d/BatchNorm/moving_variance"
      }
    }
  }
  attr {
    key: "use_locking"
    value {
      b: true
    }
  }
  attr {
    key: "validate_shape"
    value {
      b: true
    }
  }
}
node {
  name: "inverted_bottleneck0_1_0/SeparableConv2d/BatchNorm/moving_variance/read"
  op: "Identity"
  input: "inverted_bottleneck0_1_0/SeparableConv2d/BatchNorm/moving_variance"
  attr {
    key: "T"
    value {
      type: DT_FLOAT
    }
  }
  attr {
    key: "_class"
    value {
      list {
        s: "loc:@inverted_bottleneck0_1_0/SeparableConv2d/BatchNorm/moving_variance"
      }
    }
  }
}
node {
  name: "inverted_bottleneck0_1_0/SeparableConv2d/BatchNorm/Const_1"
  op: "Const"
  attr {
    key: "dtype"
    value {
      type: DT_FLOAT
    }
  }
  attr {
    key: "value"
    value {
      tensor {
        dtype: DT_FLOAT
        tensor_shape {
          dim {
          }
        }
      }
    }
  }
}
node {
  name: "inverted_bottleneck0_1_0/SeparableConv2d/BatchNorm/Const_2"
  op: "Const"
  attr {
    key: "dtype"
    value {
      type: DT_FLOAT
    }
  }
  attr {
    key: "value"
    value {
      tensor {
        dtype: DT_FLOAT
        tensor_shape {
          dim {
          }
        }
      }
    }
  }
}
node {
  name: "inverted_bottleneck0_1_0/SeparableConv2d/BatchNorm/FusedBatchNorm"
  op: "FusedBatchNorm"
  input: "inverted_bottleneck0_1_0/SeparableConv2d/depthwise"
  input: "inverted_bottleneck0_1_0/SeparableConv2d/BatchNorm/Const"
  input: "inverted_bottleneck0_1_0/SeparableConv2d/BatchNorm/beta/read"
  input: "inverted_bottleneck0_1_0/SeparableConv2d/BatchNorm/Const_1"
  input: "inverted_bottleneck0_1_0/SeparableConv2d/BatchNorm/Const_2"
  attr {
    key: "T"
    value {
      type: DT_FLOAT
    }
  }
  attr {
    key: "data_format"
    value {
      s: "NHWC"
    }
  }
  attr {
    key: "epsilon"
    value {
      f: 0.0010000000474974513
    }
  }
  attr {
    key: "is_training"
    value {
      b: true
    }
  }
}
node {
  name: "inverted_bottleneck0_1_0/SeparableConv2d/BatchNorm/Const_3"
  op: "Const"
  attr {
    key: "dtype"
    value {
      type: DT_FLOAT
    }
  }
  attr {
    key: "value"
    value {
      tensor {
        dtype: DT_FLOAT
        tensor_shape {
        }
        float_val: 0.0010000000474974513
      }
    }
  }
}
node {
  name: "inverted_bottleneck0_1_0/SeparableConv2d/BatchNorm/AssignMovingAvg/read"
  op: "Identity"
  input: "inverted_bottleneck0_1_0/SeparableConv2d/BatchNorm/moving_mean"
  attr {
    key: "T"
    value {
      type: DT_FLOAT
    }
  }
  attr {
    key: "_class"
    value {
      list {
        s: "loc:@inverted_bottleneck0_1_0/SeparableConv2d/BatchNorm/moving_mean"
      }
    }
  }
}
node {
  name: "inverted_bottleneck0_1_0/SeparableConv2d/BatchNorm/AssignMovingAvg/Sub"
  op: "Sub"
  input: "inverted_bottleneck0_1_0/SeparableConv2d/BatchNorm/AssignMovingAvg/read"
  input: "inverted_bottleneck0_1_0/SeparableConv2d/BatchNorm/FusedBatchNorm:1"
  attr {
    key: "T"
    value {
      type: DT_FLOAT
    }
  }
  attr {
    key: "_class"
    value {
      list {
        s: "loc:@inverted_bottleneck0_1_0/SeparableConv2d/BatchNorm/moving_mean"
      }
    }
  }
}
node {
  name: "inverted_bottleneck0_1_0/SeparableConv2d/BatchNorm/AssignMovingAvg/Mul"
  op: "Mul"
  input: "inverted_bottleneck0_1_0/SeparableConv2d/BatchNorm/AssignMovingAvg/Sub"
  input: "inverted_bottleneck0_1_0/SeparableConv2d/BatchNorm/Const_3"
  attr {
    key: "T"
    value {
      type: DT_FLOAT
    }
  }
  attr {
    key: "_class"
    value {
      list {
        s: "loc:@inverted_bottleneck0_1_0/SeparableConv2d/BatchNorm/moving_mean"
      }
    }
  }
}
node {
  name: "inverted_bottleneck0_1_0/SeparableConv2d/BatchNorm/AssignMovingAvg"
  op: "AssignSub"
  input: "inverted_bottleneck0_1_0/SeparableConv2d/BatchNorm/moving_mean"
  input: "inverted_bottleneck0_1_0/SeparableConv2d/BatchNorm/AssignMovingAvg/Mul"
  attr {
    key: "T"
    value {
      type: DT_FLOAT
    }
  }
  attr {
    key: "_class"
    value {
      list {
        s: "loc:@inverted_bottleneck0_1_0/SeparableConv2d/BatchNorm/moving_mean"
      }
    }
  }
  attr {
    key: "use_locking"
    value {
      b: false
    }
  }
}
node {
  name: "inverted_bottleneck0_1_0/SeparableConv2d/BatchNorm/AssignMovingAvg_1/read"
  op: "Identity"
  input: "inverted_bottleneck0_1_0/SeparableConv2d/BatchNorm/moving_variance"
  attr {
    key: "T"
    value {
      type: DT_FLOAT
    }
  }
  attr {
    key: "_class"
    value {
      list {
        s: "loc:@inverted_bottleneck0_1_0/SeparableConv2d/BatchNorm/moving_variance"
      }
    }
  }
}
node {
  name: "inverted_bottleneck0_1_0/SeparableConv2d/BatchNorm/AssignMovingAvg_1/Sub"
  op: "Sub"
  input: "inverted_bottleneck0_1_0/SeparableConv2d/BatchNorm/AssignMovingAvg_1/read"
  input: "inverted_bottleneck0_1_0/SeparableConv2d/BatchNorm/FusedBatchNorm:2"
  attr {
    key: "T"
    value {
      type: DT_FLOAT
    }
  }
  attr {
    key: "_class"
    value {
      list {
        s: "loc:@inverted_bottleneck0_1_0/SeparableConv2d/BatchNorm/moving_variance"
      }
    }
  }
}
node {
  name: "inverted_bottleneck0_1_0/SeparableConv2d/BatchNorm/AssignMovingAvg_1/Mul"
  op: "Mul"
  input: "inverted_bottleneck0_1_0/SeparableConv2d/BatchNorm/AssignMovingAvg_1/Sub"
  input: "inverted_bottleneck0_1_0/SeparableConv2d/BatchNorm/Const_3"
  attr {
    key: "T"
    value {
      type: DT_FLOAT
    }
  }
  attr {
    key: "_class"
    value {
      list {
        s: "loc:@inverted_bottleneck0_1_0/SeparableConv2d/BatchNorm/moving_variance"
      }
    }
  }
}
node {
  name: "inverted_bottleneck0_1_0/SeparableConv2d/BatchNorm/AssignMovingAvg_1"
  op: "AssignSub"
  input: "inverted_bottleneck0_1_0/SeparableConv2d/BatchNorm/moving_variance"
  input: "inverted_bottleneck0_1_0/SeparableConv2d/BatchNorm/AssignMovingAvg_1/Mul"
  attr {
    key: "T"
    value {
      type: DT_FLOAT
    }
  }
  attr {
    key: "_class"
    value {
      list {
        s: "loc:@inverted_bottleneck0_1_0/SeparableConv2d/BatchNorm/moving_variance"
      }
    }
  }
  attr {
    key: "use_locking"
    value {
      b: false
    }
  }
}
node {
  name: "inverted_bottleneck0_1_0/SeparableConv2d/Relu6"
  op: "Relu6"
  input: "inverted_bottleneck0_1_0/SeparableConv2d/BatchNorm/FusedBatchNorm"
  attr {
    key: "T"
    value {
      type: DT_FLOAT
    }
  }
}
node {
  name: "inverted_bottleneck0_1_0/Conv_1/weights/Initializer/random_uniform/shape"
  op: "Const"
  attr {
    key: "_class"
    value {
      list {
        s: "loc:@inverted_bottleneck0_1_0/Conv_1/weights"
      }
    }
  }
  attr {
    key: "dtype"
    value {
      type: DT_INT32
    }
  }
  attr {
    key: "value"
    value {
      tensor {
        dtype: DT_INT32
        tensor_shape {
          dim {
            size: 4
          }
        }
        tensor_content: "\001\000\000\000\001\000\000\000@\000\000\000\020\000\000\000"
      }
    }
  }
}
node {
  name: "inverted_bottleneck0_1_0/Conv_1/weights/Initializer/random_uniform/min"
  op: "Const"
  attr {
    key: "_class"
    value {
      list {
        s: "loc:@inverted_bottleneck0_1_0/Conv_1/weights"
      }
    }
  }
  attr {
    key: "dtype"
    value {
      type: DT_FLOAT
    }
  }
  attr {
    key: "value"
    value {
      tensor {
        dtype: DT_FLOAT
        tensor_shape {
        }
        float_val: -0.273861289024353
      }
    }
  }
}
node {
  name: "inverted_bottleneck0_1_0/Conv_1/weights/Initializer/random_uniform/max"
  op: "Const"
  attr {
    key: "_class"
    value {
      list {
        s: "loc:@inverted_bottleneck0_1_0/Conv_1/weights"
      }
    }
  }
  attr {
    key: "dtype"
    value {
      type: DT_FLOAT
    }
  }
  attr {
    key: "value"
    value {
      tensor {
        dtype: DT_FLOAT
        tensor_shape {
        }
        float_val: 0.273861289024353
      }
    }
  }
}
node {
  name: "inverted_bottleneck0_1_0/Conv_1/weights/Initializer/random_uniform/RandomUniform"
  op: "RandomUniform"
  input: "inverted_bottleneck0_1_0/Conv_1/weights/Initializer/random_uniform/shape"
  attr {
    key: "T"
    value {
      type: DT_INT32
    }
  }
  attr {
    key: "_class"
    value {
      list {
        s: "loc:@inverted_bottleneck0_1_0/Conv_1/weights"
      }
    }
  }
  attr {
    key: "dtype"
    value {
      type: DT_FLOAT
    }
  }
  attr {
    key: "seed"
    value {
      i: 0
    }
  }
  attr {
    key: "seed2"
    value {
      i: 0
    }
  }
}
node {
  name: "inverted_bottleneck0_1_0/Conv_1/weights/Initializer/random_uniform/sub"
  op: "Sub"
  input: "inverted_bottleneck0_1_0/Conv_1/weights/Initializer/random_uniform/max"
  input: "inverted_bottleneck0_1_0/Conv_1/weights/Initializer/random_uniform/min"
  attr {
    key: "T"
    value {
      type: DT_FLOAT
    }
  }
  attr {
    key: "_class"
    value {
      list {
        s: "loc:@inverted_bottleneck0_1_0/Conv_1/weights"
      }
    }
  }
}
node {
  name: "inverted_bottleneck0_1_0/Conv_1/weights/Initializer/random_uniform/mul"
  op: "Mul"
  input: "inverted_bottleneck0_1_0/Conv_1/weights/Initializer/random_uniform/RandomUniform"
  input: "inverted_bottleneck0_1_0/Conv_1/weights/Initializer/random_uniform/sub"
  attr {
    key: "T"
    value {
      type: DT_FLOAT
    }
  }
  attr {
    key: "_class"
    value {
      list {
        s: "loc:@inverted_bottleneck0_1_0/Conv_1/weights"
      }
    }
  }
}
node {
  name: "inverted_bottleneck0_1_0/Conv_1/weights/Initializer/random_uniform"
  op: "Add"
  input: "inverted_bottleneck0_1_0/Conv_1/weights/Initializer/random_uniform/mul"
  input: "inverted_bottleneck0_1_0/Conv_1/weights/Initializer/random_uniform/min"
  attr {
    key: "T"
    value {
      type: DT_FLOAT
    }
  }
  attr {
    key: "_class"
    value {
      list {
        s: "loc:@inverted_bottleneck0_1_0/Conv_1/weights"
      }
    }
  }
}
node {
  name: "inverted_bottleneck0_1_0/Conv_1/weights"
  op: "VariableV2"
  attr {
    key: "_class"
    value {
      list {
        s: "loc:@inverted_bottleneck0_1_0/Conv_1/weights"
      }
    }
  }
  attr {
    key: "container"
    value {
      s: ""
    }
  }
  attr {
    key: "dtype"
    value {
      type: DT_FLOAT
    }
  }
  attr {
    key: "shape"
    value {
      shape {
        dim {
          size: 1
        }
        dim {
          size: 1
        }
        dim {
          size: 64
        }
        dim {
          size: 16
        }
      }
    }
  }
  attr {
    key: "shared_name"
    value {
      s: ""
    }
  }
}
node {
  name: "inverted_bottleneck0_1_0/Conv_1/weights/Assign"
  op: "Assign"
  input: "inverted_bottleneck0_1_0/Conv_1/weights"
  input: "inverted_bottleneck0_1_0/Conv_1/weights/Initializer/random_uniform"
  attr {
    key: "T"
    value {
      type: DT_FLOAT
    }
  }
  attr {
    key: "_class"
    value {
      list {
        s: "loc:@inverted_bottleneck0_1_0/Conv_1/weights"
      }
    }
  }
  attr {
    key: "use_locking"
    value {
      b: true
    }
  }
  attr {
    key: "validate_shape"
    value {
      b: true
    }
  }
}
node {
  name: "inverted_bottleneck0_1_0/Conv_1/weights/read"
  op: "Identity"
  input: "inverted_bottleneck0_1_0/Conv_1/weights"
  attr {
    key: "T"
    value {
      type: DT_FLOAT
    }
  }
  attr {
    key: "_class"
    value {
      list {
        s: "loc:@inverted_bottleneck0_1_0/Conv_1/weights"
      }
    }
  }
}
node {
  name: "inverted_bottleneck0_1_0/Conv_1/dilation_rate"
  op: "Const"
  attr {
    key: "dtype"
    value {
      type: DT_INT32
    }
  }
  attr {
    key: "value"
    value {
      tensor {
        dtype: DT_INT32
        tensor_shape {
          dim {
            size: 2
          }
        }
        tensor_content: "\001\000\000\000\001\000\000\000"
      }
    }
  }
}
node {
  name: "inverted_bottleneck0_1_0/Conv_1/Conv2D"
  op: "Conv2D"
  input: "inverted_bottleneck0_1_0/SeparableConv2d/Relu6"
  input: "inverted_bottleneck0_1_0/Conv_1/weights/read"
  attr {
    key: "T"
    value {
      type: DT_FLOAT
    }
  }
  attr {
    key: "data_format"
    value {
      s: "NHWC"
    }
  }
  attr {
    key: "dilations"
    value {
      list {
        i: 1
        i: 1
        i: 1
        i: 1
      }
    }
  }
  attr {
    key: "padding"
    value {
      s: "SAME"
    }
  }
  attr {
    key: "strides"
    value {
      list {
        i: 1
        i: 1
        i: 1
        i: 1
      }
    }
  }
  attr {
    key: "use_cudnn_on_gpu"
    value {
      b: true
    }
  }
}
node {
  name: "inverted_bottleneck0_1_0/Conv_1/BatchNorm/Const"
  op: "Const"
  attr {
    key: "dtype"
    value {
      type: DT_FLOAT
    }
  }
  attr {
    key: "value"
    value {
      tensor {
        dtype: DT_FLOAT
        tensor_shape {
          dim {
            size: 16
          }
        }
        float_val: 1.0
      }
    }
  }
}
node {
  name: "inverted_bottleneck0_1_0/Conv_1/BatchNorm/beta/Initializer/zeros/shape_as_tensor"
  op: "Const"
  attr {
    key: "_class"
    value {
      list {
        s: "loc:@inverted_bottleneck0_1_0/Conv_1/BatchNorm/beta"
      }
    }
  }
  attr {
    key: "dtype"
    value {
      type: DT_INT32
    }
  }
  attr {
    key: "value"
    value {
      tensor {
        dtype: DT_INT32
        tensor_shape {
          dim {
            size: 1
          }
        }
        int_val: 16
      }
    }
  }
}
node {
  name: "inverted_bottleneck0_1_0/Conv_1/BatchNorm/beta/Initializer/zeros/Const"
  op: "Const"
  attr {
    key: "_class"
    value {
      list {
        s: "loc:@inverted_bottleneck0_1_0/Conv_1/BatchNorm/beta"
      }
    }
  }
  attr {
    key: "dtype"
    value {
      type: DT_FLOAT
    }
  }
  attr {
    key: "value"
    value {
      tensor {
        dtype: DT_FLOAT
        tensor_shape {
        }
        float_val: 0.0
      }
    }
  }
}
node {
  name: "inverted_bottleneck0_1_0/Conv_1/BatchNorm/beta/Initializer/zeros"
  op: "Fill"
  input: "inverted_bottleneck0_1_0/Conv_1/BatchNorm/beta/Initializer/zeros/shape_as_tensor"
  input: "inverted_bottleneck0_1_0/Conv_1/BatchNorm/beta/Initializer/zeros/Const"
  attr {
    key: "T"
    value {
      type: DT_FLOAT
    }
  }
  attr {
    key: "_class"
    value {
      list {
        s: "loc:@inverted_bottleneck0_1_0/Conv_1/BatchNorm/beta"
      }
    }
  }
  attr {
    key: "index_type"
    value {
      type: DT_INT32
    }
  }
}
node {
  name: "inverted_bottleneck0_1_0/Conv_1/BatchNorm/beta"
  op: "VariableV2"
  attr {
    key: "_class"
    value {
      list {
        s: "loc:@inverted_bottleneck0_1_0/Conv_1/BatchNorm/beta"
      }
    }
  }
  attr {
    key: "container"
    value {
      s: ""
    }
  }
  attr {
    key: "dtype"
    value {
      type: DT_FLOAT
    }
  }
  attr {
    key: "shape"
    value {
      shape {
        dim {
          size: 16
        }
      }
    }
  }
  attr {
    key: "shared_name"
    value {
      s: ""
    }
  }
}
node {
  name: "inverted_bottleneck0_1_0/Conv_1/BatchNorm/beta/Assign"
  op: "Assign"
  input: "inverted_bottleneck0_1_0/Conv_1/BatchNorm/beta"
  input: "inverted_bottleneck0_1_0/Conv_1/BatchNorm/beta/Initializer/zeros"
  attr {
    key: "T"
    value {
      type: DT_FLOAT
    }
  }
  attr {
    key: "_class"
    value {
      list {
        s: "loc:@inverted_bottleneck0_1_0/Conv_1/BatchNorm/beta"
      }
    }
  }
  attr {
    key: "use_locking"
    value {
      b: true
    }
  }
  attr {
    key: "validate_shape"
    value {
      b: true
    }
  }
}
node {
  name: "inverted_bottleneck0_1_0/Conv_1/BatchNorm/beta/read"
  op: "Identity"
  input: "inverted_bottleneck0_1_0/Conv_1/BatchNorm/beta"
  attr {
    key: "T"
    value {
      type: DT_FLOAT
    }
  }
  attr {
    key: "_class"
    value {
      list {
        s: "loc:@inverted_bottleneck0_1_0/Conv_1/BatchNorm/beta"
      }
    }
  }
}
node {
  name: "inverted_bottleneck0_1_0/Conv_1/BatchNorm/moving_mean/Initializer/zeros/shape_as_tensor"
  op: "Const"
  attr {
    key: "_class"
    value {
      list {
        s: "loc:@inverted_bottleneck0_1_0/Conv_1/BatchNorm/moving_mean"
      }
    }
  }
  attr {
    key: "dtype"
    value {
      type: DT_INT32
    }
  }
  attr {
    key: "value"
    value {
      tensor {
        dtype: DT_INT32
        tensor_shape {
          dim {
            size: 1
          }
        }
        int_val: 16
      }
    }
  }
}
node {
  name: "inverted_bottleneck0_1_0/Conv_1/BatchNorm/moving_mean/Initializer/zeros/Const"
  op: "Const"
  attr {
    key: "_class"
    value {
      list {
        s: "loc:@inverted_bottleneck0_1_0/Conv_1/BatchNorm/moving_mean"
      }
    }
  }
  attr {
    key: "dtype"
    value {
      type: DT_FLOAT
    }
  }
  attr {
    key: "value"
    value {
      tensor {
        dtype: DT_FLOAT
        tensor_shape {
        }
        float_val: 0.0
      }
    }
  }
}
node {
  name: "inverted_bottleneck0_1_0/Conv_1/BatchNorm/moving_mean/Initializer/zeros"
  op: "Fill"
  input: "inverted_bottleneck0_1_0/Conv_1/BatchNorm/moving_mean/Initializer/zeros/shape_as_tensor"
  input: "inverted_bottleneck0_1_0/Conv_1/BatchNorm/moving_mean/Initializer/zeros/Const"
  attr {
    key: "T"
    value {
      type: DT_FLOAT
    }
  }
  attr {
    key: "_class"
    value {
      list {
        s: "loc:@inverted_bottleneck0_1_0/Conv_1/BatchNorm/moving_mean"
      }
    }
  }
  attr {
    key: "index_type"
    value {
      type: DT_INT32
    }
  }
}
node {
  name: "inverted_bottleneck0_1_0/Conv_1/BatchNorm/moving_mean"
  op: "VariableV2"
  attr {
    key: "_class"
    value {
      list {
        s: "loc:@inverted_bottleneck0_1_0/Conv_1/BatchNorm/moving_mean"
      }
    }
  }
  attr {
    key: "container"
    value {
      s: ""
    }
  }
  attr {
    key: "dtype"
    value {
      type: DT_FLOAT
    }
  }
  attr {
    key: "shape"
    value {
      shape {
        dim {
          size: 16
        }
      }
    }
  }
  attr {
    key: "shared_name"
    value {
      s: ""
    }
  }
}
node {
  name: "inverted_bottleneck0_1_0/Conv_1/BatchNorm/moving_mean/Assign"
  op: "Assign"
  input: "inverted_bottleneck0_1_0/Conv_1/BatchNorm/moving_mean"
  input: "inverted_bottleneck0_1_0/Conv_1/BatchNorm/moving_mean/Initializer/zeros"
  attr {
    key: "T"
    value {
      type: DT_FLOAT
    }
  }
  attr {
    key: "_class"
    value {
      list {
        s: "loc:@inverted_bottleneck0_1_0/Conv_1/BatchNorm/moving_mean"
      }
    }
  }
  attr {
    key: "use_locking"
    value {
      b: true
    }
  }
  attr {
    key: "validate_shape"
    value {
      b: true
    }
  }
}
node {
  name: "inverted_bottleneck0_1_0/Conv_1/BatchNorm/moving_mean/read"
  op: "Identity"
  input: "inverted_bottleneck0_1_0/Conv_1/BatchNorm/moving_mean"
  attr {
    key: "T"
    value {
      type: DT_FLOAT
    }
  }
  attr {
    key: "_class"
    value {
      list {
        s: "loc:@inverted_bottleneck0_1_0/Conv_1/BatchNorm/moving_mean"
      }
    }
  }
}
node {
  name: "inverted_bottleneck0_1_0/Conv_1/BatchNorm/moving_variance/Initializer/ones/shape_as_tensor"
  op: "Const"
  attr {
    key: "_class"
    value {
      list {
        s: "loc:@inverted_bottleneck0_1_0/Conv_1/BatchNorm/moving_variance"
      }
    }
  }
  attr {
    key: "dtype"
    value {
      type: DT_INT32
    }
  }
  attr {
    key: "value"
    value {
      tensor {
        dtype: DT_INT32
        tensor_shape {
          dim {
            size: 1
          }
        }
        int_val: 16
      }
    }
  }
}
node {
  name: "inverted_bottleneck0_1_0/Conv_1/BatchNorm/moving_variance/Initializer/ones/Const"
  op: "Const"
  attr {
    key: "_class"
    value {
      list {
        s: "loc:@inverted_bottleneck0_1_0/Conv_1/BatchNorm/moving_variance"
      }
    }
  }
  attr {
    key: "dtype"
    value {
      type: DT_FLOAT
    }
  }
  attr {
    key: "value"
    value {
      tensor {
        dtype: DT_FLOAT
        tensor_shape {
        }
        float_val: 1.0
      }
    }
  }
}
node {
  name: "inverted_bottleneck0_1_0/Conv_1/BatchNorm/moving_variance/Initializer/ones"
  op: "Fill"
  input: "inverted_bottleneck0_1_0/Conv_1/BatchNorm/moving_variance/Initializer/ones/shape_as_tensor"
  input: "inverted_bottleneck0_1_0/Conv_1/BatchNorm/moving_variance/Initializer/ones/Const"
  attr {
    key: "T"
    value {
      type: DT_FLOAT
    }
  }
  attr {
    key: "_class"
    value {
      list {
        s: "loc:@inverted_bottleneck0_1_0/Conv_1/BatchNorm/moving_variance"
      }
    }
  }
  attr {
    key: "index_type"
    value {
      type: DT_INT32
    }
  }
}
node {
  name: "inverted_bottleneck0_1_0/Conv_1/BatchNorm/moving_variance"
  op: "VariableV2"
  attr {
    key: "_class"
    value {
      list {
        s: "loc:@inverted_bottleneck0_1_0/Conv_1/BatchNorm/moving_variance"
      }
    }
  }
  attr {
    key: "container"
    value {
      s: ""
    }
  }
  attr {
    key: "dtype"
    value {
      type: DT_FLOAT
    }
  }
  attr {
    key: "shape"
    value {
      shape {
        dim {
          size: 16
        }
      }
    }
  }
  attr {
    key: "shared_name"
    value {
      s: ""
    }
  }
}
node {
  name: "inverted_bottleneck0_1_0/Conv_1/BatchNorm/moving_variance/Assign"
  op: "Assign"
  input: "inverted_bottleneck0_1_0/Conv_1/BatchNorm/moving_variance"
  input: "inverted_bottleneck0_1_0/Conv_1/BatchNorm/moving_variance/Initializer/ones"
  attr {
    key: "T"
    value {
      type: DT_FLOAT
    }
  }
  attr {
    key: "_class"
    value {
      list {
        s: "loc:@inverted_bottleneck0_1_0/Conv_1/BatchNorm/moving_variance"
      }
    }
  }
  attr {
    key: "use_locking"
    value {
      b: true
    }
  }
  attr {
    key: "validate_shape"
    value {
      b: true
    }
  }
}
node {
  name: "inverted_bottleneck0_1_0/Conv_1/BatchNorm/moving_variance/read"
  op: "Identity"
  input: "inverted_bottleneck0_1_0/Conv_1/BatchNorm/moving_variance"
  attr {
    key: "T"
    value {
      type: DT_FLOAT
    }
  }
  attr {
    key: "_class"
    value {
      list {
        s: "loc:@inverted_bottleneck0_1_0/Conv_1/BatchNorm/moving_variance"
      }
    }
  }
}
node {
  name: "inverted_bottleneck0_1_0/Conv_1/BatchNorm/Const_1"
  op: "Const"
  attr {
    key: "dtype"
    value {
      type: DT_FLOAT
    }
  }
  attr {
    key: "value"
    value {
      tensor {
        dtype: DT_FLOAT
        tensor_shape {
          dim {
          }
        }
      }
    }
  }
}
node {
  name: "inverted_bottleneck0_1_0/Conv_1/BatchNorm/Const_2"
  op: "Const"
  attr {
    key: "dtype"
    value {
      type: DT_FLOAT
    }
  }
  attr {
    key: "value"
    value {
      tensor {
        dtype: DT_FLOAT
        tensor_shape {
          dim {
          }
        }
      }
    }
  }
}
node {
  name: "inverted_bottleneck0_1_0/Conv_1/BatchNorm/FusedBatchNorm"
  op: "FusedBatchNorm"
  input: "inverted_bottleneck0_1_0/Conv_1/Conv2D"
  input: "inverted_bottleneck0_1_0/Conv_1/BatchNorm/Const"
  input: "inverted_bottleneck0_1_0/Conv_1/BatchNorm/beta/read"
  input: "inverted_bottleneck0_1_0/Conv_1/BatchNorm/Const_1"
  input: "inverted_bottleneck0_1_0/Conv_1/BatchNorm/Const_2"
  attr {
    key: "T"
    value {
      type: DT_FLOAT
    }
  }
  attr {
    key: "data_format"
    value {
      s: "NHWC"
    }
  }
  attr {
    key: "epsilon"
    value {
      f: 0.0010000000474974513
    }
  }
  attr {
    key: "is_training"
    value {
      b: true
    }
  }
}
node {
  name: "inverted_bottleneck0_1_0/Conv_1/BatchNorm/Const_3"
  op: "Const"
  attr {
    key: "dtype"
    value {
      type: DT_FLOAT
    }
  }
  attr {
    key: "value"
    value {
      tensor {
        dtype: DT_FLOAT
        tensor_shape {
        }
        float_val: 0.0010000000474974513
      }
    }
  }
}
node {
  name: "inverted_bottleneck0_1_0/Conv_1/BatchNorm/AssignMovingAvg/read"
  op: "Identity"
  input: "inverted_bottleneck0_1_0/Conv_1/BatchNorm/moving_mean"
  attr {
    key: "T"
    value {
      type: DT_FLOAT
    }
  }
  attr {
    key: "_class"
    value {
      list {
        s: "loc:@inverted_bottleneck0_1_0/Conv_1/BatchNorm/moving_mean"
      }
    }
  }
}
node {
  name: "inverted_bottleneck0_1_0/Conv_1/BatchNorm/AssignMovingAvg/Sub"
  op: "Sub"
  input: "inverted_bottleneck0_1_0/Conv_1/BatchNorm/AssignMovingAvg/read"
  input: "inverted_bottleneck0_1_0/Conv_1/BatchNorm/FusedBatchNorm:1"
  attr {
    key: "T"
    value {
      type: DT_FLOAT
    }
  }
  attr {
    key: "_class"
    value {
      list {
        s: "loc:@inverted_bottleneck0_1_0/Conv_1/BatchNorm/moving_mean"
      }
    }
  }
}
node {
  name: "inverted_bottleneck0_1_0/Conv_1/BatchNorm/AssignMovingAvg/Mul"
  op: "Mul"
  input: "inverted_bottleneck0_1_0/Conv_1/BatchNorm/AssignMovingAvg/Sub"
  input: "inverted_bottleneck0_1_0/Conv_1/BatchNorm/Const_3"
  attr {
    key: "T"
    value {
      type: DT_FLOAT
    }
  }
  attr {
    key: "_class"
    value {
      list {
        s: "loc:@inverted_bottleneck0_1_0/Conv_1/BatchNorm/moving_mean"
      }
    }
  }
}
node {
  name: "inverted_bottleneck0_1_0/Conv_1/BatchNorm/AssignMovingAvg"
  op: "AssignSub"
  input: "inverted_bottleneck0_1_0/Conv_1/BatchNorm/moving_mean"
  input: "inverted_bottleneck0_1_0/Conv_1/BatchNorm/AssignMovingAvg/Mul"
  attr {
    key: "T"
    value {
      type: DT_FLOAT
    }
  }
  attr {
    key: "_class"
    value {
      list {
        s: "loc:@inverted_bottleneck0_1_0/Conv_1/BatchNorm/moving_mean"
      }
    }
  }
  attr {
    key: "use_locking"
    value {
      b: false
    }
  }
}
node {
  name: "inverted_bottleneck0_1_0/Conv_1/BatchNorm/AssignMovingAvg_1/read"
  op: "Identity"
  input: "inverted_bottleneck0_1_0/Conv_1/BatchNorm/moving_variance"
  attr {
    key: "T"
    value {
      type: DT_FLOAT
    }
  }
  attr {
    key: "_class"
    value {
      list {
        s: "loc:@inverted_bottleneck0_1_0/Conv_1/BatchNorm/moving_variance"
      }
    }
  }
}
node {
  name: "inverted_bottleneck0_1_0/Conv_1/BatchNorm/AssignMovingAvg_1/Sub"
  op: "Sub"
  input: "inverted_bottleneck0_1_0/Conv_1/BatchNorm/AssignMovingAvg_1/read"
  input: "inverted_bottleneck0_1_0/Conv_1/BatchNorm/FusedBatchNorm:2"
  attr {
    key: "T"
    value {
      type: DT_FLOAT
    }
  }
  attr {
    key: "_class"
    value {
      list {
        s: "loc:@inverted_bottleneck0_1_0/Conv_1/BatchNorm/moving_variance"
      }
    }
  }
}
node {
  name: "inverted_bottleneck0_1_0/Conv_1/BatchNorm/AssignMovingAvg_1/Mul"
  op: "Mul"
  input: "inverted_bottleneck0_1_0/Conv_1/BatchNorm/AssignMovingAvg_1/Sub"
  input: "inverted_bottleneck0_1_0/Conv_1/BatchNorm/Const_3"
  attr {
    key: "T"
    value {
      type: DT_FLOAT
    }
  }
  attr {
    key: "_class"
    value {
      list {
        s: "loc:@inverted_bottleneck0_1_0/Conv_1/BatchNorm/moving_variance"
      }
    }
  }
}
node {
  name: "inverted_bottleneck0_1_0/Conv_1/BatchNorm/AssignMovingAvg_1"
  op: "AssignSub"
  input: "inverted_bottleneck0_1_0/Conv_1/BatchNorm/moving_variance"
  input: "inverted_bottleneck0_1_0/Conv_1/BatchNorm/AssignMovingAvg_1/Mul"
  attr {
    key: "T"
    value {
      type: DT_FLOAT
    }
  }
  attr {
    key: "_class"
    value {
      list {
        s: "loc:@inverted_bottleneck0_1_0/Conv_1/BatchNorm/moving_variance"
      }
    }
  }
  attr {
    key: "use_locking"
    value {
      b: false
    }
  }
}
node {
  name: "inverted_bottleneck1_6_1/Conv/weights/Initializer/random_uniform/shape"
  op: "Const"
  attr {
    key: "_class"
    value {
      list {
        s: "loc:@inverted_bottleneck1_6_1/Conv/weights"
      }
    }
  }
  attr {
    key: "dtype"
    value {
      type: DT_INT32
    }
  }
  attr {
    key: "value"
    value {
      tensor {
        dtype: DT_INT32
        tensor_shape {
          dim {
            size: 4
          }
        }
        tensor_content: "\001\000\000\000\001\000\000\000\020\000\000\000`\000\000\000"
      }
    }
  }
}
node {
  name: "inverted_bottleneck1_6_1/Conv/weights/Initializer/random_uniform/min"
  op: "Const"
  attr {
    key: "_class"
    value {
      list {
        s: "loc:@inverted_bottleneck1_6_1/Conv/weights"
      }
    }
  }
  attr {
    key: "dtype"
    value {
      type: DT_FLOAT
    }
  }
  attr {
    key: "value"
    value {
      tensor {
        dtype: DT_FLOAT
        tensor_shape {
        }
        float_val: -0.2314550280570984
      }
    }
  }
}
node {
  name: "inverted_bottleneck1_6_1/Conv/weights/Initializer/random_uniform/max"
  op: "Const"
  attr {
    key: "_class"
    value {
      list {
        s: "loc:@inverted_bottleneck1_6_1/Conv/weights"
      }
    }
  }
  attr {
    key: "dtype"
    value {
      type: DT_FLOAT
    }
  }
  attr {
    key: "value"
    value {
      tensor {
        dtype: DT_FLOAT
        tensor_shape {
        }
        float_val: 0.2314550280570984
      }
    }
  }
}
node {
  name: "inverted_bottleneck1_6_1/Conv/weights/Initializer/random_uniform/RandomUniform"
  op: "RandomUniform"
  input: "inverted_bottleneck1_6_1/Conv/weights/Initializer/random_uniform/shape"
  attr {
    key: "T"
    value {
      type: DT_INT32
    }
  }
  attr {
    key: "_class"
    value {
      list {
        s: "loc:@inverted_bottleneck1_6_1/Conv/weights"
      }
    }
  }
  attr {
    key: "dtype"
    value {
      type: DT_FLOAT
    }
  }
  attr {
    key: "seed"
    value {
      i: 0
    }
  }
  attr {
    key: "seed2"
    value {
      i: 0
    }
  }
}
node {
  name: "inverted_bottleneck1_6_1/Conv/weights/Initializer/random_uniform/sub"
  op: "Sub"
  input: "inverted_bottleneck1_6_1/Conv/weights/Initializer/random_uniform/max"
  input: "inverted_bottleneck1_6_1/Conv/weights/Initializer/random_uniform/min"
  attr {
    key: "T"
    value {
      type: DT_FLOAT
    }
  }
  attr {
    key: "_class"
    value {
      list {
        s: "loc:@inverted_bottleneck1_6_1/Conv/weights"
      }
    }
  }
}
node {
  name: "inverted_bottleneck1_6_1/Conv/weights/Initializer/random_uniform/mul"
  op: "Mul"
  input: "inverted_bottleneck1_6_1/Conv/weights/Initializer/random_uniform/RandomUniform"
  input: "inverted_bottleneck1_6_1/Conv/weights/Initializer/random_uniform/sub"
  attr {
    key: "T"
    value {
      type: DT_FLOAT
    }
  }
  attr {
    key: "_class"
    value {
      list {
        s: "loc:@inverted_bottleneck1_6_1/Conv/weights"
      }
    }
  }
}
node {
  name: "inverted_bottleneck1_6_1/Conv/weights/Initializer/random_uniform"
  op: "Add"
  input: "inverted_bottleneck1_6_1/Conv/weights/Initializer/random_uniform/mul"
  input: "inverted_bottleneck1_6_1/Conv/weights/Initializer/random_uniform/min"
  attr {
    key: "T"
    value {
      type: DT_FLOAT
    }
  }
  attr {
    key: "_class"
    value {
      list {
        s: "loc:@inverted_bottleneck1_6_1/Conv/weights"
      }
    }
  }
}
node {
  name: "inverted_bottleneck1_6_1/Conv/weights"
  op: "VariableV2"
  attr {
    key: "_class"
    value {
      list {
        s: "loc:@inverted_bottleneck1_6_1/Conv/weights"
      }
    }
  }
  attr {
    key: "container"
    value {
      s: ""
    }
  }
  attr {
    key: "dtype"
    value {
      type: DT_FLOAT
    }
  }
  attr {
    key: "shape"
    value {
      shape {
        dim {
          size: 1
        }
        dim {
          size: 1
        }
        dim {
          size: 16
        }
        dim {
          size: 96
        }
      }
    }
  }
  attr {
    key: "shared_name"
    value {
      s: ""
    }
  }
}
node {
  name: "inverted_bottleneck1_6_1/Conv/weights/Assign"
  op: "Assign"
  input: "inverted_bottleneck1_6_1/Conv/weights"
  input: "inverted_bottleneck1_6_1/Conv/weights/Initializer/random_uniform"
  attr {
    key: "T"
    value {
      type: DT_FLOAT
    }
  }
  attr {
    key: "_class"
    value {
      list {
        s: "loc:@inverted_bottleneck1_6_1/Conv/weights"
      }
    }
  }
  attr {
    key: "use_locking"
    value {
      b: true
    }
  }
  attr {
    key: "validate_shape"
    value {
      b: true
    }
  }
}
node {
  name: "inverted_bottleneck1_6_1/Conv/weights/read"
  op: "Identity"
  input: "inverted_bottleneck1_6_1/Conv/weights"
  attr {
    key: "T"
    value {
      type: DT_FLOAT
    }
  }
  attr {
    key: "_class"
    value {
      list {
        s: "loc:@inverted_bottleneck1_6_1/Conv/weights"
      }
    }
  }
}
node {
  name: "inverted_bottleneck1_6_1/Conv/dilation_rate"
  op: "Const"
  attr {
    key: "dtype"
    value {
      type: DT_INT32
    }
  }
  attr {
    key: "value"
    value {
      tensor {
        dtype: DT_INT32
        tensor_shape {
          dim {
            size: 2
          }
        }
        tensor_content: "\001\000\000\000\001\000\000\000"
      }
    }
  }
}
node {
  name: "inverted_bottleneck1_6_1/Conv/Conv2D"
  op: "Conv2D"
  input: "inverted_bottleneck0_1_0/Conv_1/BatchNorm/FusedBatchNorm"
  input: "inverted_bottleneck1_6_1/Conv/weights/read"
  attr {
    key: "T"
    value {
      type: DT_FLOAT
    }
  }
  attr {
    key: "data_format"
    value {
      s: "NHWC"
    }
  }
  attr {
    key: "dilations"
    value {
      list {
        i: 1
        i: 1
        i: 1
        i: 1
      }
    }
  }
  attr {
    key: "padding"
    value {
      s: "SAME"
    }
  }
  attr {
    key: "strides"
    value {
      list {
        i: 1
        i: 1
        i: 1
        i: 1
      }
    }
  }
  attr {
    key: "use_cudnn_on_gpu"
    value {
      b: true
    }
  }
}
node {
  name: "inverted_bottleneck1_6_1/Conv/BatchNorm/Const"
  op: "Const"
  attr {
    key: "dtype"
    value {
      type: DT_FLOAT
    }
  }
  attr {
    key: "value"
    value {
      tensor {
        dtype: DT_FLOAT
        tensor_shape {
          dim {
            size: 96
          }
        }
        float_val: 1.0
      }
    }
  }
}
node {
  name: "inverted_bottleneck1_6_1/Conv/BatchNorm/beta/Initializer/zeros/shape_as_tensor"
  op: "Const"
  attr {
    key: "_class"
    value {
      list {
        s: "loc:@inverted_bottleneck1_6_1/Conv/BatchNorm/beta"
      }
    }
  }
  attr {
    key: "dtype"
    value {
      type: DT_INT32
    }
  }
  attr {
    key: "value"
    value {
      tensor {
        dtype: DT_INT32
        tensor_shape {
          dim {
            size: 1
          }
        }
        int_val: 96
      }
    }
  }
}
node {
  name: "inverted_bottleneck1_6_1/Conv/BatchNorm/beta/Initializer/zeros/Const"
  op: "Const"
  attr {
    key: "_class"
    value {
      list {
        s: "loc:@inverted_bottleneck1_6_1/Conv/BatchNorm/beta"
      }
    }
  }
  attr {
    key: "dtype"
    value {
      type: DT_FLOAT
    }
  }
  attr {
    key: "value"
    value {
      tensor {
        dtype: DT_FLOAT
        tensor_shape {
        }
        float_val: 0.0
      }
    }
  }
}
node {
  name: "inverted_bottleneck1_6_1/Conv/BatchNorm/beta/Initializer/zeros"
  op: "Fill"
  input: "inverted_bottleneck1_6_1/Conv/BatchNorm/beta/Initializer/zeros/shape_as_tensor"
  input: "inverted_bottleneck1_6_1/Conv/BatchNorm/beta/Initializer/zeros/Const"
  attr {
    key: "T"
    value {
      type: DT_FLOAT
    }
  }
  attr {
    key: "_class"
    value {
      list {
        s: "loc:@inverted_bottleneck1_6_1/Conv/BatchNorm/beta"
      }
    }
  }
  attr {
    key: "index_type"
    value {
      type: DT_INT32
    }
  }
}
node {
  name: "inverted_bottleneck1_6_1/Conv/BatchNorm/beta"
  op: "VariableV2"
  attr {
    key: "_class"
    value {
      list {
        s: "loc:@inverted_bottleneck1_6_1/Conv/BatchNorm/beta"
      }
    }
  }
  attr {
    key: "container"
    value {
      s: ""
    }
  }
  attr {
    key: "dtype"
    value {
      type: DT_FLOAT
    }
  }
  attr {
    key: "shape"
    value {
      shape {
        dim {
          size: 96
        }
      }
    }
  }
  attr {
    key: "shared_name"
    value {
      s: ""
    }
  }
}
node {
  name: "inverted_bottleneck1_6_1/Conv/BatchNorm/beta/Assign"
  op: "Assign"
  input: "inverted_bottleneck1_6_1/Conv/BatchNorm/beta"
  input: "inverted_bottleneck1_6_1/Conv/BatchNorm/beta/Initializer/zeros"
  attr {
    key: "T"
    value {
      type: DT_FLOAT
    }
  }
  attr {
    key: "_class"
    value {
      list {
        s: "loc:@inverted_bottleneck1_6_1/Conv/BatchNorm/beta"
      }
    }
  }
  attr {
    key: "use_locking"
    value {
      b: true
    }
  }
  attr {
    key: "validate_shape"
    value {
      b: true
    }
  }
}
node {
  name: "inverted_bottleneck1_6_1/Conv/BatchNorm/beta/read"
  op: "Identity"
  input: "inverted_bottleneck1_6_1/Conv/BatchNorm/beta"
  attr {
    key: "T"
    value {
      type: DT_FLOAT
    }
  }
  attr {
    key: "_class"
    value {
      list {
        s: "loc:@inverted_bottleneck1_6_1/Conv/BatchNorm/beta"
      }
    }
  }
}
node {
  name: "inverted_bottleneck1_6_1/Conv/BatchNorm/moving_mean/Initializer/zeros/shape_as_tensor"
  op: "Const"
  attr {
    key: "_class"
    value {
      list {
        s: "loc:@inverted_bottleneck1_6_1/Conv/BatchNorm/moving_mean"
      }
    }
  }
  attr {
    key: "dtype"
    value {
      type: DT_INT32
    }
  }
  attr {
    key: "value"
    value {
      tensor {
        dtype: DT_INT32
        tensor_shape {
          dim {
            size: 1
          }
        }
        int_val: 96
      }
    }
  }
}
node {
  name: "inverted_bottleneck1_6_1/Conv/BatchNorm/moving_mean/Initializer/zeros/Const"
  op: "Const"
  attr {
    key: "_class"
    value {
      list {
        s: "loc:@inverted_bottleneck1_6_1/Conv/BatchNorm/moving_mean"
      }
    }
  }
  attr {
    key: "dtype"
    value {
      type: DT_FLOAT
    }
  }
  attr {
    key: "value"
    value {
      tensor {
        dtype: DT_FLOAT
        tensor_shape {
        }
        float_val: 0.0
      }
    }
  }
}
node {
  name: "inverted_bottleneck1_6_1/Conv/BatchNorm/moving_mean/Initializer/zeros"
  op: "Fill"
  input: "inverted_bottleneck1_6_1/Conv/BatchNorm/moving_mean/Initializer/zeros/shape_as_tensor"
  input: "inverted_bottleneck1_6_1/Conv/BatchNorm/moving_mean/Initializer/zeros/Const"
  attr {
    key: "T"
    value {
      type: DT_FLOAT
    }
  }
  attr {
    key: "_class"
    value {
      list {
        s: "loc:@inverted_bottleneck1_6_1/Conv/BatchNorm/moving_mean"
      }
    }
  }
  attr {
    key: "index_type"
    value {
      type: DT_INT32
    }
  }
}
node {
  name: "inverted_bottleneck1_6_1/Conv/BatchNorm/moving_mean"
  op: "VariableV2"
  attr {
    key: "_class"
    value {
      list {
        s: "loc:@inverted_bottleneck1_6_1/Conv/BatchNorm/moving_mean"
      }
    }
  }
  attr {
    key: "container"
    value {
      s: ""
    }
  }
  attr {
    key: "dtype"
    value {
      type: DT_FLOAT
    }
  }
  attr {
    key: "shape"
    value {
      shape {
        dim {
          size: 96
        }
      }
    }
  }
  attr {
    key: "shared_name"
    value {
      s: ""
    }
  }
}
node {
  name: "inverted_bottleneck1_6_1/Conv/BatchNorm/moving_mean/Assign"
  op: "Assign"
  input: "inverted_bottleneck1_6_1/Conv/BatchNorm/moving_mean"
  input: "inverted_bottleneck1_6_1/Conv/BatchNorm/moving_mean/Initializer/zeros"
  attr {
    key: "T"
    value {
      type: DT_FLOAT
    }
  }
  attr {
    key: "_class"
    value {
      list {
        s: "loc:@inverted_bottleneck1_6_1/Conv/BatchNorm/moving_mean"
      }
    }
  }
  attr {
    key: "use_locking"
    value {
      b: true
    }
  }
  attr {
    key: "validate_shape"
    value {
      b: true
    }
  }
}
node {
  name: "inverted_bottleneck1_6_1/Conv/BatchNorm/moving_mean/read"
  op: "Identity"
  input: "inverted_bottleneck1_6_1/Conv/BatchNorm/moving_mean"
  attr {
    key: "T"
    value {
      type: DT_FLOAT
    }
  }
  attr {
    key: "_class"
    value {
      list {
        s: "loc:@inverted_bottleneck1_6_1/Conv/BatchNorm/moving_mean"
      }
    }
  }
}
node {
  name: "inverted_bottleneck1_6_1/Conv/BatchNorm/moving_variance/Initializer/ones/shape_as_tensor"
  op: "Const"
  attr {
    key: "_class"
    value {
      list {
        s: "loc:@inverted_bottleneck1_6_1/Conv/BatchNorm/moving_variance"
      }
    }
  }
  attr {
    key: "dtype"
    value {
      type: DT_INT32
    }
  }
  attr {
    key: "value"
    value {
      tensor {
        dtype: DT_INT32
        tensor_shape {
          dim {
            size: 1
          }
        }
        int_val: 96
      }
    }
  }
}
node {
  name: "inverted_bottleneck1_6_1/Conv/BatchNorm/moving_variance/Initializer/ones/Const"
  op: "Const"
  attr {
    key: "_class"
    value {
      list {
        s: "loc:@inverted_bottleneck1_6_1/Conv/BatchNorm/moving_variance"
      }
    }
  }
  attr {
    key: "dtype"
    value {
      type: DT_FLOAT
    }
  }
  attr {
    key: "value"
    value {
      tensor {
        dtype: DT_FLOAT
        tensor_shape {
        }
        float_val: 1.0
      }
    }
  }
}
node {
  name: "inverted_bottleneck1_6_1/Conv/BatchNorm/moving_variance/Initializer/ones"
  op: "Fill"
  input: "inverted_bottleneck1_6_1/Conv/BatchNorm/moving_variance/Initializer/ones/shape_as_tensor"
  input: "inverted_bottleneck1_6_1/Conv/BatchNorm/moving_variance/Initializer/ones/Const"
  attr {
    key: "T"
    value {
      type: DT_FLOAT
    }
  }
  attr {
    key: "_class"
    value {
      list {
        s: "loc:@inverted_bottleneck1_6_1/Conv/BatchNorm/moving_variance"
      }
    }
  }
  attr {
    key: "index_type"
    value {
      type: DT_INT32
    }
  }
}
node {
  name: "inverted_bottleneck1_6_1/Conv/BatchNorm/moving_variance"
  op: "VariableV2"
  attr {
    key: "_class"
    value {
      list {
        s: "loc:@inverted_bottleneck1_6_1/Conv/BatchNorm/moving_variance"
      }
    }
  }
  attr {
    key: "container"
    value {
      s: ""
    }
  }
  attr {
    key: "dtype"
    value {
      type: DT_FLOAT
    }
  }
  attr {
    key: "shape"
    value {
      shape {
        dim {
          size: 96
        }
      }
    }
  }
  attr {
    key: "shared_name"
    value {
      s: ""
    }
  }
}
node {
  name: "inverted_bottleneck1_6_1/Conv/BatchNorm/moving_variance/Assign"
  op: "Assign"
  input: "inverted_bottleneck1_6_1/Conv/BatchNorm/moving_variance"
  input: "inverted_bottleneck1_6_1/Conv/BatchNorm/moving_variance/Initializer/ones"
  attr {
    key: "T"
    value {
      type: DT_FLOAT
    }
  }
  attr {
    key: "_class"
    value {
      list {
        s: "loc:@inverted_bottleneck1_6_1/Conv/BatchNorm/moving_variance"
      }
    }
  }
  attr {
    key: "use_locking"
    value {
      b: true
    }
  }
  attr {
    key: "validate_shape"
    value {
      b: true
    }
  }
}
node {
  name: "inverted_bottleneck1_6_1/Conv/BatchNorm/moving_variance/read"
  op: "Identity"
  input: "inverted_bottleneck1_6_1/Conv/BatchNorm/moving_variance"
  attr {
    key: "T"
    value {
      type: DT_FLOAT
    }
  }
  attr {
    key: "_class"
    value {
      list {
        s: "loc:@inverted_bottleneck1_6_1/Conv/BatchNorm/moving_variance"
      }
    }
  }
}
node {
  name: "inverted_bottleneck1_6_1/Conv/BatchNorm/Const_1"
  op: "Const"
  attr {
    key: "dtype"
    value {
      type: DT_FLOAT
    }
  }
  attr {
    key: "value"
    value {
      tensor {
        dtype: DT_FLOAT
        tensor_shape {
          dim {
          }
        }
      }
    }
  }
}
node {
  name: "inverted_bottleneck1_6_1/Conv/BatchNorm/Const_2"
  op: "Const"
  attr {
    key: "dtype"
    value {
      type: DT_FLOAT
    }
  }
  attr {
    key: "value"
    value {
      tensor {
        dtype: DT_FLOAT
        tensor_shape {
          dim {
          }
        }
      }
    }
  }
}
node {
  name: "inverted_bottleneck1_6_1/Conv/BatchNorm/FusedBatchNorm"
  op: "FusedBatchNorm"
  input: "inverted_bottleneck1_6_1/Conv/Conv2D"
  input: "inverted_bottleneck1_6_1/Conv/BatchNorm/Const"
  input: "inverted_bottleneck1_6_1/Conv/BatchNorm/beta/read"
  input: "inverted_bottleneck1_6_1/Conv/BatchNorm/Const_1"
  input: "inverted_bottleneck1_6_1/Conv/BatchNorm/Const_2"
  attr {
    key: "T"
    value {
      type: DT_FLOAT
    }
  }
  attr {
    key: "data_format"
    value {
      s: "NHWC"
    }
  }
  attr {
    key: "epsilon"
    value {
      f: 0.0010000000474974513
    }
  }
  attr {
    key: "is_training"
    value {
      b: true
    }
  }
}
node {
  name: "inverted_bottleneck1_6_1/Conv/BatchNorm/Const_3"
  op: "Const"
  attr {
    key: "dtype"
    value {
      type: DT_FLOAT
    }
  }
  attr {
    key: "value"
    value {
      tensor {
        dtype: DT_FLOAT
        tensor_shape {
        }
        float_val: 0.0010000000474974513
      }
    }
  }
}
node {
  name: "inverted_bottleneck1_6_1/Conv/BatchNorm/AssignMovingAvg/read"
  op: "Identity"
  input: "inverted_bottleneck1_6_1/Conv/BatchNorm/moving_mean"
  attr {
    key: "T"
    value {
      type: DT_FLOAT
    }
  }
  attr {
    key: "_class"
    value {
      list {
        s: "loc:@inverted_bottleneck1_6_1/Conv/BatchNorm/moving_mean"
      }
    }
  }
}
node {
  name: "inverted_bottleneck1_6_1/Conv/BatchNorm/AssignMovingAvg/Sub"
  op: "Sub"
  input: "inverted_bottleneck1_6_1/Conv/BatchNorm/AssignMovingAvg/read"
  input: "inverted_bottleneck1_6_1/Conv/BatchNorm/FusedBatchNorm:1"
  attr {
    key: "T"
    value {
      type: DT_FLOAT
    }
  }
  attr {
    key: "_class"
    value {
      list {
        s: "loc:@inverted_bottleneck1_6_1/Conv/BatchNorm/moving_mean"
      }
    }
  }
}
node {
  name: "inverted_bottleneck1_6_1/Conv/BatchNorm/AssignMovingAvg/Mul"
  op: "Mul"
  input: "inverted_bottleneck1_6_1/Conv/BatchNorm/AssignMovingAvg/Sub"
  input: "inverted_bottleneck1_6_1/Conv/BatchNorm/Const_3"
  attr {
    key: "T"
    value {
      type: DT_FLOAT
    }
  }
  attr {
    key: "_class"
    value {
      list {
        s: "loc:@inverted_bottleneck1_6_1/Conv/BatchNorm/moving_mean"
      }
    }
  }
}
node {
  name: "inverted_bottleneck1_6_1/Conv/BatchNorm/AssignMovingAvg"
  op: "AssignSub"
  input: "inverted_bottleneck1_6_1/Conv/BatchNorm/moving_mean"
  input: "inverted_bottleneck1_6_1/Conv/BatchNorm/AssignMovingAvg/Mul"
  attr {
    key: "T"
    value {
      type: DT_FLOAT
    }
  }
  attr {
    key: "_class"
    value {
      list {
        s: "loc:@inverted_bottleneck1_6_1/Conv/BatchNorm/moving_mean"
      }
    }
  }
  attr {
    key: "use_locking"
    value {
      b: false
    }
  }
}
node {
  name: "inverted_bottleneck1_6_1/Conv/BatchNorm/AssignMovingAvg_1/read"
  op: "Identity"
  input: "inverted_bottleneck1_6_1/Conv/BatchNorm/moving_variance"
  attr {
    key: "T"
    value {
      type: DT_FLOAT
    }
  }
  attr {
    key: "_class"
    value {
      list {
        s: "loc:@inverted_bottleneck1_6_1/Conv/BatchNorm/moving_variance"
      }
    }
  }
}
node {
  name: "inverted_bottleneck1_6_1/Conv/BatchNorm/AssignMovingAvg_1/Sub"
  op: "Sub"
  input: "inverted_bottleneck1_6_1/Conv/BatchNorm/AssignMovingAvg_1/read"
  input: "inverted_bottleneck1_6_1/Conv/BatchNorm/FusedBatchNorm:2"
  attr {
    key: "T"
    value {
      type: DT_FLOAT
    }
  }
  attr {
    key: "_class"
    value {
      list {
        s: "loc:@inverted_bottleneck1_6_1/Conv/BatchNorm/moving_variance"
      }
    }
  }
}
node {
  name: "inverted_bottleneck1_6_1/Conv/BatchNorm/AssignMovingAvg_1/Mul"
  op: "Mul"
  input: "inverted_bottleneck1_6_1/Conv/BatchNorm/AssignMovingAvg_1/Sub"
  input: "inverted_bottleneck1_6_1/Conv/BatchNorm/Const_3"
  attr {
    key: "T"
    value {
      type: DT_FLOAT
    }
  }
  attr {
    key: "_class"
    value {
      list {
        s: "loc:@inverted_bottleneck1_6_1/Conv/BatchNorm/moving_variance"
      }
    }
  }
}
node {
  name: "inverted_bottleneck1_6_1/Conv/BatchNorm/AssignMovingAvg_1"
  op: "AssignSub"
  input: "inverted_bottleneck1_6_1/Conv/BatchNorm/moving_variance"
  input: "inverted_bottleneck1_6_1/Conv/BatchNorm/AssignMovingAvg_1/Mul"
  attr {
    key: "T"
    value {
      type: DT_FLOAT
    }
  }
  attr {
    key: "_class"
    value {
      list {
        s: "loc:@inverted_bottleneck1_6_1/Conv/BatchNorm/moving_variance"
      }
    }
  }
  attr {
    key: "use_locking"
    value {
      b: false
    }
  }
}
node {
  name: "inverted_bottleneck1_6_1/Conv/Relu6"
  op: "Relu6"
  input: "inverted_bottleneck1_6_1/Conv/BatchNorm/FusedBatchNorm"
  attr {
    key: "T"
    value {
      type: DT_FLOAT
    }
  }
}
node {
  name: "inverted_bottleneck1_6_1/SeparableConv2d/depthwise_weights/Initializer/random_uniform/shape"
  op: "Const"
  attr {
    key: "_class"
    value {
      list {
        s: "loc:@inverted_bottleneck1_6_1/SeparableConv2d/depthwise_weights"
      }
    }
  }
  attr {
    key: "dtype"
    value {
      type: DT_INT32
    }
  }
  attr {
    key: "value"
    value {
      tensor {
        dtype: DT_INT32
        tensor_shape {
          dim {
            size: 4
          }
        }
        tensor_content: "\003\000\000\000\003\000\000\000`\000\000\000\001\000\000\000"
      }
    }
  }
}
node {
  name: "inverted_bottleneck1_6_1/SeparableConv2d/depthwise_weights/Initializer/random_uniform/min"
  op: "Const"
  attr {
    key: "_class"
    value {
      list {
        s: "loc:@inverted_bottleneck1_6_1/SeparableConv2d/depthwise_weights"
      }
    }
  }
  attr {
    key: "dtype"
    value {
      type: DT_FLOAT
    }
  }
  attr {
    key: "value"
    value {
      tensor {
        dtype: DT_FLOAT
        tensor_shape {
        }
        float_val: -0.08290266990661621
      }
    }
  }
}
node {
  name: "inverted_bottleneck1_6_1/SeparableConv2d/depthwise_weights/Initializer/random_uniform/max"
  op: "Const"
  attr {
    key: "_class"
    value {
      list {
        s: "loc:@inverted_bottleneck1_6_1/SeparableConv2d/depthwise_weights"
      }
    }
  }
  attr {
    key: "dtype"
    value {
      type: DT_FLOAT
    }
  }
  attr {
    key: "value"
    value {
      tensor {
        dtype: DT_FLOAT
        tensor_shape {
        }
        float_val: 0.08290266990661621
      }
    }
  }
}
node {
  name: "inverted_bottleneck1_6_1/SeparableConv2d/depthwise_weights/Initializer/random_uniform/RandomUniform"
  op: "RandomUniform"
  input: "inverted_bottleneck1_6_1/SeparableConv2d/depthwise_weights/Initializer/random_uniform/shape"
  attr {
    key: "T"
    value {
      type: DT_INT32
    }
  }
  attr {
    key: "_class"
    value {
      list {
        s: "loc:@inverted_bottleneck1_6_1/SeparableConv2d/depthwise_weights"
      }
    }
  }
  attr {
    key: "dtype"
    value {
      type: DT_FLOAT
    }
  }
  attr {
    key: "seed"
    value {
      i: 0
    }
  }
  attr {
    key: "seed2"
    value {
      i: 0
    }
  }
}
node {
  name: "inverted_bottleneck1_6_1/SeparableConv2d/depthwise_weights/Initializer/random_uniform/sub"
  op: "Sub"
  input: "inverted_bottleneck1_6_1/SeparableConv2d/depthwise_weights/Initializer/random_uniform/max"
  input: "inverted_bottleneck1_6_1/SeparableConv2d/depthwise_weights/Initializer/random_uniform/min"
  attr {
    key: "T"
    value {
      type: DT_FLOAT
    }
  }
  attr {
    key: "_class"
    value {
      list {
        s: "loc:@inverted_bottleneck1_6_1/SeparableConv2d/depthwise_weights"
      }
    }
  }
}
node {
  name: "inverted_bottleneck1_6_1/SeparableConv2d/depthwise_weights/Initializer/random_uniform/mul"
  op: "Mul"
  input: "inverted_bottleneck1_6_1/SeparableConv2d/depthwise_weights/Initializer/random_uniform/RandomUniform"
  input: "inverted_bottleneck1_6_1/SeparableConv2d/depthwise_weights/Initializer/random_uniform/sub"
  attr {
    key: "T"
    value {
      type: DT_FLOAT
    }
  }
  attr {
    key: "_class"
    value {
      list {
        s: "loc:@inverted_bottleneck1_6_1/SeparableConv2d/depthwise_weights"
      }
    }
  }
}
node {
  name: "inverted_bottleneck1_6_1/SeparableConv2d/depthwise_weights/Initializer/random_uniform"
  op: "Add"
  input: "inverted_bottleneck1_6_1/SeparableConv2d/depthwise_weights/Initializer/random_uniform/mul"
  input: "inverted_bottleneck1_6_1/SeparableConv2d/depthwise_weights/Initializer/random_uniform/min"
  attr {
    key: "T"
    value {
      type: DT_FLOAT
    }
  }
  attr {
    key: "_class"
    value {
      list {
        s: "loc:@inverted_bottleneck1_6_1/SeparableConv2d/depthwise_weights"
      }
    }
  }
}
node {
  name: "inverted_bottleneck1_6_1/SeparableConv2d/depthwise_weights"
  op: "VariableV2"
  attr {
    key: "_class"
    value {
      list {
        s: "loc:@inverted_bottleneck1_6_1/SeparableConv2d/depthwise_weights"
      }
    }
  }
  attr {
    key: "container"
    value {
      s: ""
    }
  }
  attr {
    key: "dtype"
    value {
      type: DT_FLOAT
    }
  }
  attr {
    key: "shape"
    value {
      shape {
        dim {
          size: 3
        }
        dim {
          size: 3
        }
        dim {
          size: 96
        }
        dim {
          size: 1
        }
      }
    }
  }
  attr {
    key: "shared_name"
    value {
      s: ""
    }
  }
}
node {
  name: "inverted_bottleneck1_6_1/SeparableConv2d/depthwise_weights/Assign"
  op: "Assign"
  input: "inverted_bottleneck1_6_1/SeparableConv2d/depthwise_weights"
  input: "inverted_bottleneck1_6_1/SeparableConv2d/depthwise_weights/Initializer/random_uniform"
  attr {
    key: "T"
    value {
      type: DT_FLOAT
    }
  }
  attr {
    key: "_class"
    value {
      list {
        s: "loc:@inverted_bottleneck1_6_1/SeparableConv2d/depthwise_weights"
      }
    }
  }
  attr {
    key: "use_locking"
    value {
      b: true
    }
  }
  attr {
    key: "validate_shape"
    value {
      b: true
    }
  }
}
node {
  name: "inverted_bottleneck1_6_1/SeparableConv2d/depthwise_weights/read"
  op: "Identity"
  input: "inverted_bottleneck1_6_1/SeparableConv2d/depthwise_weights"
  attr {
    key: "T"
    value {
      type: DT_FLOAT
    }
  }
  attr {
    key: "_class"
    value {
      list {
        s: "loc:@inverted_bottleneck1_6_1/SeparableConv2d/depthwise_weights"
      }
    }
  }
}
node {
  name: "inverted_bottleneck1_6_1/SeparableConv2d/depthwise/Shape"
  op: "Const"
  attr {
    key: "dtype"
    value {
      type: DT_INT32
    }
  }
  attr {
    key: "value"
    value {
      tensor {
        dtype: DT_INT32
        tensor_shape {
          dim {
            size: 4
          }
        }
        tensor_content: "\003\000\000\000\003\000\000\000`\000\000\000\001\000\000\000"
      }
    }
  }
}
node {
  name: "inverted_bottleneck1_6_1/SeparableConv2d/depthwise/dilation_rate"
  op: "Const"
  attr {
    key: "dtype"
    value {
      type: DT_INT32
    }
  }
  attr {
    key: "value"
    value {
      tensor {
        dtype: DT_INT32
        tensor_shape {
          dim {
            size: 2
          }
        }
        tensor_content: "\001\000\000\000\001\000\000\000"
      }
    }
  }
}
node {
  name: "inverted_bottleneck1_6_1/SeparableConv2d/depthwise"
  op: "DepthwiseConv2dNative"
  input: "inverted_bottleneck1_6_1/Conv/Relu6"
  input: "inverted_bottleneck1_6_1/SeparableConv2d/depthwise_weights/read"
  attr {
    key: "T"
    value {
      type: DT_FLOAT
    }
  }
  attr {
    key: "data_format"
    value {
      s: "NHWC"
    }
  }
  attr {
    key: "dilations"
    value {
      list {
        i: 1
        i: 1
        i: 1
        i: 1
      }
    }
  }
  attr {
    key: "padding"
    value {
      s: "SAME"
    }
  }
  attr {
    key: "strides"
    value {
      list {
        i: 1
        i: 2
        i: 2
        i: 1
      }
    }
  }
}
node {
  name: "inverted_bottleneck1_6_1/SeparableConv2d/BatchNorm/Const"
  op: "Const"
  attr {
    key: "dtype"
    value {
      type: DT_FLOAT
    }
  }
  attr {
    key: "value"
    value {
      tensor {
        dtype: DT_FLOAT
        tensor_shape {
          dim {
            size: 96
          }
        }
        float_val: 1.0
      }
    }
  }
}
node {
  name: "inverted_bottleneck1_6_1/SeparableConv2d/BatchNorm/beta/Initializer/zeros/shape_as_tensor"
  op: "Const"
  attr {
    key: "_class"
    value {
      list {
        s: "loc:@inverted_bottleneck1_6_1/SeparableConv2d/BatchNorm/beta"
      }
    }
  }
  attr {
    key: "dtype"
    value {
      type: DT_INT32
    }
  }
  attr {
    key: "value"
    value {
      tensor {
        dtype: DT_INT32
        tensor_shape {
          dim {
            size: 1
          }
        }
        int_val: 96
      }
    }
  }
}
node {
  name: "inverted_bottleneck1_6_1/SeparableConv2d/BatchNorm/beta/Initializer/zeros/Const"
  op: "Const"
  attr {
    key: "_class"
    value {
      list {
        s: "loc:@inverted_bottleneck1_6_1/SeparableConv2d/BatchNorm/beta"
      }
    }
  }
  attr {
    key: "dtype"
    value {
      type: DT_FLOAT
    }
  }
  attr {
    key: "value"
    value {
      tensor {
        dtype: DT_FLOAT
        tensor_shape {
        }
        float_val: 0.0
      }
    }
  }
}
node {
  name: "inverted_bottleneck1_6_1/SeparableConv2d/BatchNorm/beta/Initializer/zeros"
  op: "Fill"
  input: "inverted_bottleneck1_6_1/SeparableConv2d/BatchNorm/beta/Initializer/zeros/shape_as_tensor"
  input: "inverted_bottleneck1_6_1/SeparableConv2d/BatchNorm/beta/Initializer/zeros/Const"
  attr {
    key: "T"
    value {
      type: DT_FLOAT
    }
  }
  attr {
    key: "_class"
    value {
      list {
        s: "loc:@inverted_bottleneck1_6_1/SeparableConv2d/BatchNorm/beta"
      }
    }
  }
  attr {
    key: "index_type"
    value {
      type: DT_INT32
    }
  }
}
node {
  name: "inverted_bottleneck1_6_1/SeparableConv2d/BatchNorm/beta"
  op: "VariableV2"
  attr {
    key: "_class"
    value {
      list {
        s: "loc:@inverted_bottleneck1_6_1/SeparableConv2d/BatchNorm/beta"
      }
    }
  }
  attr {
    key: "container"
    value {
      s: ""
    }
  }
  attr {
    key: "dtype"
    value {
      type: DT_FLOAT
    }
  }
  attr {
    key: "shape"
    value {
      shape {
        dim {
          size: 96
        }
      }
    }
  }
  attr {
    key: "shared_name"
    value {
      s: ""
    }
  }
}
node {
  name: "inverted_bottleneck1_6_1/SeparableConv2d/BatchNorm/beta/Assign"
  op: "Assign"
  input: "inverted_bottleneck1_6_1/SeparableConv2d/BatchNorm/beta"
  input: "inverted_bottleneck1_6_1/SeparableConv2d/BatchNorm/beta/Initializer/zeros"
  attr {
    key: "T"
    value {
      type: DT_FLOAT
    }
  }
  attr {
    key: "_class"
    value {
      list {
        s: "loc:@inverted_bottleneck1_6_1/SeparableConv2d/BatchNorm/beta"
      }
    }
  }
  attr {
    key: "use_locking"
    value {
      b: true
    }
  }
  attr {
    key: "validate_shape"
    value {
      b: true
    }
  }
}
node {
  name: "inverted_bottleneck1_6_1/SeparableConv2d/BatchNorm/beta/read"
  op: "Identity"
  input: "inverted_bottleneck1_6_1/SeparableConv2d/BatchNorm/beta"
  attr {
    key: "T"
    value {
      type: DT_FLOAT
    }
  }
  attr {
    key: "_class"
    value {
      list {
        s: "loc:@inverted_bottleneck1_6_1/SeparableConv2d/BatchNorm/beta"
      }
    }
  }
}
node {
  name: "inverted_bottleneck1_6_1/SeparableConv2d/BatchNorm/moving_mean/Initializer/zeros/shape_as_tensor"
  op: "Const"
  attr {
    key: "_class"
    value {
      list {
        s: "loc:@inverted_bottleneck1_6_1/SeparableConv2d/BatchNorm/moving_mean"
      }
    }
  }
  attr {
    key: "dtype"
    value {
      type: DT_INT32
    }
  }
  attr {
    key: "value"
    value {
      tensor {
        dtype: DT_INT32
        tensor_shape {
          dim {
            size: 1
          }
        }
        int_val: 96
      }
    }
  }
}
node {
  name: "inverted_bottleneck1_6_1/SeparableConv2d/BatchNorm/moving_mean/Initializer/zeros/Const"
  op: "Const"
  attr {
    key: "_class"
    value {
      list {
        s: "loc:@inverted_bottleneck1_6_1/SeparableConv2d/BatchNorm/moving_mean"
      }
    }
  }
  attr {
    key: "dtype"
    value {
      type: DT_FLOAT
    }
  }
  attr {
    key: "value"
    value {
      tensor {
        dtype: DT_FLOAT
        tensor_shape {
        }
        float_val: 0.0
      }
    }
  }
}
node {
  name: "inverted_bottleneck1_6_1/SeparableConv2d/BatchNorm/moving_mean/Initializer/zeros"
  op: "Fill"
  input: "inverted_bottleneck1_6_1/SeparableConv2d/BatchNorm/moving_mean/Initializer/zeros/shape_as_tensor"
  input: "inverted_bottleneck1_6_1/SeparableConv2d/BatchNorm/moving_mean/Initializer/zeros/Const"
  attr {
    key: "T"
    value {
      type: DT_FLOAT
    }
  }
  attr {
    key: "_class"
    value {
      list {
        s: "loc:@inverted_bottleneck1_6_1/SeparableConv2d/BatchNorm/moving_mean"
      }
    }
  }
  attr {
    key: "index_type"
    value {
      type: DT_INT32
    }
  }
}
node {
  name: "inverted_bottleneck1_6_1/SeparableConv2d/BatchNorm/moving_mean"
  op: "VariableV2"
  attr {
    key: "_class"
    value {
      list {
        s: "loc:@inverted_bottleneck1_6_1/SeparableConv2d/BatchNorm/moving_mean"
      }
    }
  }
  attr {
    key: "container"
    value {
      s: ""
    }
  }
  attr {
    key: "dtype"
    value {
      type: DT_FLOAT
    }
  }
  attr {
    key: "shape"
    value {
      shape {
        dim {
          size: 96
        }
      }
    }
  }
  attr {
    key: "shared_name"
    value {
      s: ""
    }
  }
}
node {
  name: "inverted_bottleneck1_6_1/SeparableConv2d/BatchNorm/moving_mean/Assign"
  op: "Assign"
  input: "inverted_bottleneck1_6_1/SeparableConv2d/BatchNorm/moving_mean"
  input: "inverted_bottleneck1_6_1/SeparableConv2d/BatchNorm/moving_mean/Initializer/zeros"
  attr {
    key: "T"
    value {
      type: DT_FLOAT
    }
  }
  attr {
    key: "_class"
    value {
      list {
        s: "loc:@inverted_bottleneck1_6_1/SeparableConv2d/BatchNorm/moving_mean"
      }
    }
  }
  attr {
    key: "use_locking"
    value {
      b: true
    }
  }
  attr {
    key: "validate_shape"
    value {
      b: true
    }
  }
}
node {
  name: "inverted_bottleneck1_6_1/SeparableConv2d/BatchNorm/moving_mean/read"
  op: "Identity"
  input: "inverted_bottleneck1_6_1/SeparableConv2d/BatchNorm/moving_mean"
  attr {
    key: "T"
    value {
      type: DT_FLOAT
    }
  }
  attr {
    key: "_class"
    value {
      list {
        s: "loc:@inverted_bottleneck1_6_1/SeparableConv2d/BatchNorm/moving_mean"
      }
    }
  }
}
node {
  name: "inverted_bottleneck1_6_1/SeparableConv2d/BatchNorm/moving_variance/Initializer/ones/shape_as_tensor"
  op: "Const"
  attr {
    key: "_class"
    value {
      list {
        s: "loc:@inverted_bottleneck1_6_1/SeparableConv2d/BatchNorm/moving_variance"
      }
    }
  }
  attr {
    key: "dtype"
    value {
      type: DT_INT32
    }
  }
  attr {
    key: "value"
    value {
      tensor {
        dtype: DT_INT32
        tensor_shape {
          dim {
            size: 1
          }
        }
        int_val: 96
      }
    }
  }
}
node {
  name: "inverted_bottleneck1_6_1/SeparableConv2d/BatchNorm/moving_variance/Initializer/ones/Const"
  op: "Const"
  attr {
    key: "_class"
    value {
      list {
        s: "loc:@inverted_bottleneck1_6_1/SeparableConv2d/BatchNorm/moving_variance"
      }
    }
  }
  attr {
    key: "dtype"
    value {
      type: DT_FLOAT
    }
  }
  attr {
    key: "value"
    value {
      tensor {
        dtype: DT_FLOAT
        tensor_shape {
        }
        float_val: 1.0
      }
    }
  }
}
node {
  name: "inverted_bottleneck1_6_1/SeparableConv2d/BatchNorm/moving_variance/Initializer/ones"
  op: "Fill"
  input: "inverted_bottleneck1_6_1/SeparableConv2d/BatchNorm/moving_variance/Initializer/ones/shape_as_tensor"
  input: "inverted_bottleneck1_6_1/SeparableConv2d/BatchNorm/moving_variance/Initializer/ones/Const"
  attr {
    key: "T"
    value {
      type: DT_FLOAT
    }
  }
  attr {
    key: "_class"
    value {
      list {
        s: "loc:@inverted_bottleneck1_6_1/SeparableConv2d/BatchNorm/moving_variance"
      }
    }
  }
  attr {
    key: "index_type"
    value {
      type: DT_INT32
    }
  }
}
node {
  name: "inverted_bottleneck1_6_1/SeparableConv2d/BatchNorm/moving_variance"
  op: "VariableV2"
  attr {
    key: "_class"
    value {
      list {
        s: "loc:@inverted_bottleneck1_6_1/SeparableConv2d/BatchNorm/moving_variance"
      }
    }
  }
  attr {
    key: "container"
    value {
      s: ""
    }
  }
  attr {
    key: "dtype"
    value {
      type: DT_FLOAT
    }
  }
  attr {
    key: "shape"
    value {
      shape {
        dim {
          size: 96
        }
      }
    }
  }
  attr {
    key: "shared_name"
    value {
      s: ""
    }
  }
}
node {
  name: "inverted_bottleneck1_6_1/SeparableConv2d/BatchNorm/moving_variance/Assign"
  op: "Assign"
  input: "inverted_bottleneck1_6_1/SeparableConv2d/BatchNorm/moving_variance"
  input: "inverted_bottleneck1_6_1/SeparableConv2d/BatchNorm/moving_variance/Initializer/ones"
  attr {
    key: "T"
    value {
      type: DT_FLOAT
    }
  }
  attr {
    key: "_class"
    value {
      list {
        s: "loc:@inverted_bottleneck1_6_1/SeparableConv2d/BatchNorm/moving_variance"
      }
    }
  }
  attr {
    key: "use_locking"
    value {
      b: true
    }
  }
  attr {
    key: "validate_shape"
    value {
      b: true
    }
  }
}
node {
  name: "inverted_bottleneck1_6_1/SeparableConv2d/BatchNorm/moving_variance/read"
  op: "Identity"
  input: "inverted_bottleneck1_6_1/SeparableConv2d/BatchNorm/moving_variance"
  attr {
    key: "T"
    value {
      type: DT_FLOAT
    }
  }
  attr {
    key: "_class"
    value {
      list {
        s: "loc:@inverted_bottleneck1_6_1/SeparableConv2d/BatchNorm/moving_variance"
      }
    }
  }
}
node {
  name: "inverted_bottleneck1_6_1/SeparableConv2d/BatchNorm/Const_1"
  op: "Const"
  attr {
    key: "dtype"
    value {
      type: DT_FLOAT
    }
  }
  attr {
    key: "value"
    value {
      tensor {
        dtype: DT_FLOAT
        tensor_shape {
          dim {
          }
        }
      }
    }
  }
}
node {
  name: "inverted_bottleneck1_6_1/SeparableConv2d/BatchNorm/Const_2"
  op: "Const"
  attr {
    key: "dtype"
    value {
      type: DT_FLOAT
    }
  }
  attr {
    key: "value"
    value {
      tensor {
        dtype: DT_FLOAT
        tensor_shape {
          dim {
          }
        }
      }
    }
  }
}
node {
  name: "inverted_bottleneck1_6_1/SeparableConv2d/BatchNorm/FusedBatchNorm"
  op: "FusedBatchNorm"
  input: "inverted_bottleneck1_6_1/SeparableConv2d/depthwise"
  input: "inverted_bottleneck1_6_1/SeparableConv2d/BatchNorm/Const"
  input: "inverted_bottleneck1_6_1/SeparableConv2d/BatchNorm/beta/read"
  input: "inverted_bottleneck1_6_1/SeparableConv2d/BatchNorm/Const_1"
  input: "inverted_bottleneck1_6_1/SeparableConv2d/BatchNorm/Const_2"
  attr {
    key: "T"
    value {
      type: DT_FLOAT
    }
  }
  attr {
    key: "data_format"
    value {
      s: "NHWC"
    }
  }
  attr {
    key: "epsilon"
    value {
      f: 0.0010000000474974513
    }
  }
  attr {
    key: "is_training"
    value {
      b: true
    }
  }
}
node {
  name: "inverted_bottleneck1_6_1/SeparableConv2d/BatchNorm/Const_3"
  op: "Const"
  attr {
    key: "dtype"
    value {
      type: DT_FLOAT
    }
  }
  attr {
    key: "value"
    value {
      tensor {
        dtype: DT_FLOAT
        tensor_shape {
        }
        float_val: 0.0010000000474974513
      }
    }
  }
}
node {
  name: "inverted_bottleneck1_6_1/SeparableConv2d/BatchNorm/AssignMovingAvg/read"
  op: "Identity"
  input: "inverted_bottleneck1_6_1/SeparableConv2d/BatchNorm/moving_mean"
  attr {
    key: "T"
    value {
      type: DT_FLOAT
    }
  }
  attr {
    key: "_class"
    value {
      list {
        s: "loc:@inverted_bottleneck1_6_1/SeparableConv2d/BatchNorm/moving_mean"
      }
    }
  }
}
node {
  name: "inverted_bottleneck1_6_1/SeparableConv2d/BatchNorm/AssignMovingAvg/Sub"
  op: "Sub"
  input: "inverted_bottleneck1_6_1/SeparableConv2d/BatchNorm/AssignMovingAvg/read"
  input: "inverted_bottleneck1_6_1/SeparableConv2d/BatchNorm/FusedBatchNorm:1"
  attr {
    key: "T"
    value {
      type: DT_FLOAT
    }
  }
  attr {
    key: "_class"
    value {
      list {
        s: "loc:@inverted_bottleneck1_6_1/SeparableConv2d/BatchNorm/moving_mean"
      }
    }
  }
}
node {
  name: "inverted_bottleneck1_6_1/SeparableConv2d/BatchNorm/AssignMovingAvg/Mul"
  op: "Mul"
  input: "inverted_bottleneck1_6_1/SeparableConv2d/BatchNorm/AssignMovingAvg/Sub"
  input: "inverted_bottleneck1_6_1/SeparableConv2d/BatchNorm/Const_3"
  attr {
    key: "T"
    value {
      type: DT_FLOAT
    }
  }
  attr {
    key: "_class"
    value {
      list {
        s: "loc:@inverted_bottleneck1_6_1/SeparableConv2d/BatchNorm/moving_mean"
      }
    }
  }
}
node {
  name: "inverted_bottleneck1_6_1/SeparableConv2d/BatchNorm/AssignMovingAvg"
  op: "AssignSub"
  input: "inverted_bottleneck1_6_1/SeparableConv2d/BatchNorm/moving_mean"
  input: "inverted_bottleneck1_6_1/SeparableConv2d/BatchNorm/AssignMovingAvg/Mul"
  attr {
    key: "T"
    value {
      type: DT_FLOAT
    }
  }
  attr {
    key: "_class"
    value {
      list {
        s: "loc:@inverted_bottleneck1_6_1/SeparableConv2d/BatchNorm/moving_mean"
      }
    }
  }
  attr {
    key: "use_locking"
    value {
      b: false
    }
  }
}
node {
  name: "inverted_bottleneck1_6_1/SeparableConv2d/BatchNorm/AssignMovingAvg_1/read"
  op: "Identity"
  input: "inverted_bottleneck1_6_1/SeparableConv2d/BatchNorm/moving_variance"
  attr {
    key: "T"
    value {
      type: DT_FLOAT
    }
  }
  attr {
    key: "_class"
    value {
      list {
        s: "loc:@inverted_bottleneck1_6_1/SeparableConv2d/BatchNorm/moving_variance"
      }
    }
  }
}
node {
  name: "inverted_bottleneck1_6_1/SeparableConv2d/BatchNorm/AssignMovingAvg_1/Sub"
  op: "Sub"
  input: "inverted_bottleneck1_6_1/SeparableConv2d/BatchNorm/AssignMovingAvg_1/read"
  input: "inverted_bottleneck1_6_1/SeparableConv2d/BatchNorm/FusedBatchNorm:2"
  attr {
    key: "T"
    value {
      type: DT_FLOAT
    }
  }
  attr {
    key: "_class"
    value {
      list {
        s: "loc:@inverted_bottleneck1_6_1/SeparableConv2d/BatchNorm/moving_variance"
      }
    }
  }
}
node {
  name: "inverted_bottleneck1_6_1/SeparableConv2d/BatchNorm/AssignMovingAvg_1/Mul"
  op: "Mul"
  input: "inverted_bottleneck1_6_1/SeparableConv2d/BatchNorm/AssignMovingAvg_1/Sub"
  input: "inverted_bottleneck1_6_1/SeparableConv2d/BatchNorm/Const_3"
  attr {
    key: "T"
    value {
      type: DT_FLOAT
    }
  }
  attr {
    key: "_class"
    value {
      list {
        s: "loc:@inverted_bottleneck1_6_1/SeparableConv2d/BatchNorm/moving_variance"
      }
    }
  }
}
node {
  name: "inverted_bottleneck1_6_1/SeparableConv2d/BatchNorm/AssignMovingAvg_1"
  op: "AssignSub"
  input: "inverted_bottleneck1_6_1/SeparableConv2d/BatchNorm/moving_variance"
  input: "inverted_bottleneck1_6_1/SeparableConv2d/BatchNorm/AssignMovingAvg_1/Mul"
  attr {
    key: "T"
    value {
      type: DT_FLOAT
    }
  }
  attr {
    key: "_class"
    value {
      list {
        s: "loc:@inverted_bottleneck1_6_1/SeparableConv2d/BatchNorm/moving_variance"
      }
    }
  }
  attr {
    key: "use_locking"
    value {
      b: false
    }
  }
}
node {
  name: "inverted_bottleneck1_6_1/SeparableConv2d/Relu6"
  op: "Relu6"
  input: "inverted_bottleneck1_6_1/SeparableConv2d/BatchNorm/FusedBatchNorm"
  attr {
    key: "T"
    value {
      type: DT_FLOAT
    }
  }
}
node {
  name: "inverted_bottleneck1_6_1/Conv_1/weights/Initializer/random_uniform/shape"
  op: "Const"
  attr {
    key: "_class"
    value {
      list {
        s: "loc:@inverted_bottleneck1_6_1/Conv_1/weights"
      }
    }
  }
  attr {
    key: "dtype"
    value {
      type: DT_INT32
    }
  }
  attr {
    key: "value"
    value {
      tensor {
        dtype: DT_INT32
        tensor_shape {
          dim {
            size: 4
          }
        }
        tensor_content: "\001\000\000\000\001\000\000\000`\000\000\000\030\000\000\000"
      }
    }
  }
}
node {
  name: "inverted_bottleneck1_6_1/Conv_1/weights/Initializer/random_uniform/min"
  op: "Const"
  attr {
    key: "_class"
    value {
      list {
        s: "loc:@inverted_bottleneck1_6_1/Conv_1/weights"
      }
    }
  }
  attr {
    key: "dtype"
    value {
      type: DT_FLOAT
    }
  }
  attr {
    key: "value"
    value {
      tensor {
        dtype: DT_FLOAT
        tensor_shape {
        }
        float_val: -0.22360679507255554
      }
    }
  }
}
node {
  name: "inverted_bottleneck1_6_1/Conv_1/weights/Initializer/random_uniform/max"
  op: "Const"
  attr {
    key: "_class"
    value {
      list {
        s: "loc:@inverted_bottleneck1_6_1/Conv_1/weights"
      }
    }
  }
  attr {
    key: "dtype"
    value {
      type: DT_FLOAT
    }
  }
  attr {
    key: "value"
    value {
      tensor {
        dtype: DT_FLOAT
        tensor_shape {
        }
        float_val: 0.22360679507255554
      }
    }
  }
}
node {
  name: "inverted_bottleneck1_6_1/Conv_1/weights/Initializer/random_uniform/RandomUniform"
  op: "RandomUniform"
  input: "inverted_bottleneck1_6_1/Conv_1/weights/Initializer/random_uniform/shape"
  attr {
    key: "T"
    value {
      type: DT_INT32
    }
  }
  attr {
    key: "_class"
    value {
      list {
        s: "loc:@inverted_bottleneck1_6_1/Conv_1/weights"
      }
    }
  }
  attr {
    key: "dtype"
    value {
      type: DT_FLOAT
    }
  }
  attr {
    key: "seed"
    value {
      i: 0
    }
  }
  attr {
    key: "seed2"
    value {
      i: 0
    }
  }
}
node {
  name: "inverted_bottleneck1_6_1/Conv_1/weights/Initializer/random_uniform/sub"
  op: "Sub"
  input: "inverted_bottleneck1_6_1/Conv_1/weights/Initializer/random_uniform/max"
  input: "inverted_bottleneck1_6_1/Conv_1/weights/Initializer/random_uniform/min"
  attr {
    key: "T"
    value {
      type: DT_FLOAT
    }
  }
  attr {
    key: "_class"
    value {
      list {
        s: "loc:@inverted_bottleneck1_6_1/Conv_1/weights"
      }
    }
  }
}
node {
  name: "inverted_bottleneck1_6_1/Conv_1/weights/Initializer/random_uniform/mul"
  op: "Mul"
  input: "inverted_bottleneck1_6_1/Conv_1/weights/Initializer/random_uniform/RandomUniform"
  input: "inverted_bottleneck1_6_1/Conv_1/weights/Initializer/random_uniform/sub"
  attr {
    key: "T"
    value {
      type: DT_FLOAT
    }
  }
  attr {
    key: "_class"
    value {
      list {
        s: "loc:@inverted_bottleneck1_6_1/Conv_1/weights"
      }
    }
  }
}
node {
  name: "inverted_bottleneck1_6_1/Conv_1/weights/Initializer/random_uniform"
  op: "Add"
  input: "inverted_bottleneck1_6_1/Conv_1/weights/Initializer/random_uniform/mul"
  input: "inverted_bottleneck1_6_1/Conv_1/weights/Initializer/random_uniform/min"
  attr {
    key: "T"
    value {
      type: DT_FLOAT
    }
  }
  attr {
    key: "_class"
    value {
      list {
        s: "loc:@inverted_bottleneck1_6_1/Conv_1/weights"
      }
    }
  }
}
node {
  name: "inverted_bottleneck1_6_1/Conv_1/weights"
  op: "VariableV2"
  attr {
    key: "_class"
    value {
      list {
        s: "loc:@inverted_bottleneck1_6_1/Conv_1/weights"
      }
    }
  }
  attr {
    key: "container"
    value {
      s: ""
    }
  }
  attr {
    key: "dtype"
    value {
      type: DT_FLOAT
    }
  }
  attr {
    key: "shape"
    value {
      shape {
        dim {
          size: 1
        }
        dim {
          size: 1
        }
        dim {
          size: 96
        }
        dim {
          size: 24
        }
      }
    }
  }
  attr {
    key: "shared_name"
    value {
      s: ""
    }
  }
}
node {
  name: "inverted_bottleneck1_6_1/Conv_1/weights/Assign"
  op: "Assign"
  input: "inverted_bottleneck1_6_1/Conv_1/weights"
  input: "inverted_bottleneck1_6_1/Conv_1/weights/Initializer/random_uniform"
  attr {
    key: "T"
    value {
      type: DT_FLOAT
    }
  }
  attr {
    key: "_class"
    value {
      list {
        s: "loc:@inverted_bottleneck1_6_1/Conv_1/weights"
      }
    }
  }
  attr {
    key: "use_locking"
    value {
      b: true
    }
  }
  attr {
    key: "validate_shape"
    value {
      b: true
    }
  }
}
node {
  name: "inverted_bottleneck1_6_1/Conv_1/weights/read"
  op: "Identity"
  input: "inverted_bottleneck1_6_1/Conv_1/weights"
  attr {
    key: "T"
    value {
      type: DT_FLOAT
    }
  }
  attr {
    key: "_class"
    value {
      list {
        s: "loc:@inverted_bottleneck1_6_1/Conv_1/weights"
      }
    }
  }
}
node {
  name: "inverted_bottleneck1_6_1/Conv_1/dilation_rate"
  op: "Const"
  attr {
    key: "dtype"
    value {
      type: DT_INT32
    }
  }
  attr {
    key: "value"
    value {
      tensor {
        dtype: DT_INT32
        tensor_shape {
          dim {
            size: 2
          }
        }
        tensor_content: "\001\000\000\000\001\000\000\000"
      }
    }
  }
}
node {
  name: "inverted_bottleneck1_6_1/Conv_1/Conv2D"
  op: "Conv2D"
  input: "inverted_bottleneck1_6_1/SeparableConv2d/Relu6"
  input: "inverted_bottleneck1_6_1/Conv_1/weights/read"
  attr {
    key: "T"
    value {
      type: DT_FLOAT
    }
  }
  attr {
    key: "data_format"
    value {
      s: "NHWC"
    }
  }
  attr {
    key: "dilations"
    value {
      list {
        i: 1
        i: 1
        i: 1
        i: 1
      }
    }
  }
  attr {
    key: "padding"
    value {
      s: "SAME"
    }
  }
  attr {
    key: "strides"
    value {
      list {
        i: 1
        i: 1
        i: 1
        i: 1
      }
    }
  }
  attr {
    key: "use_cudnn_on_gpu"
    value {
      b: true
    }
  }
}
node {
  name: "inverted_bottleneck1_6_1/Conv_1/BatchNorm/Const"
  op: "Const"
  attr {
    key: "dtype"
    value {
      type: DT_FLOAT
    }
  }
  attr {
    key: "value"
    value {
      tensor {
        dtype: DT_FLOAT
        tensor_shape {
          dim {
            size: 24
          }
        }
        float_val: 1.0
      }
    }
  }
}
node {
  name: "inverted_bottleneck1_6_1/Conv_1/BatchNorm/beta/Initializer/zeros/shape_as_tensor"
  op: "Const"
  attr {
    key: "_class"
    value {
      list {
        s: "loc:@inverted_bottleneck1_6_1/Conv_1/BatchNorm/beta"
      }
    }
  }
  attr {
    key: "dtype"
    value {
      type: DT_INT32
    }
  }
  attr {
    key: "value"
    value {
      tensor {
        dtype: DT_INT32
        tensor_shape {
          dim {
            size: 1
          }
        }
        int_val: 24
      }
    }
  }
}
node {
  name: "inverted_bottleneck1_6_1/Conv_1/BatchNorm/beta/Initializer/zeros/Const"
  op: "Const"
  attr {
    key: "_class"
    value {
      list {
        s: "loc:@inverted_bottleneck1_6_1/Conv_1/BatchNorm/beta"
      }
    }
  }
  attr {
    key: "dtype"
    value {
      type: DT_FLOAT
    }
  }
  attr {
    key: "value"
    value {
      tensor {
        dtype: DT_FLOAT
        tensor_shape {
        }
        float_val: 0.0
      }
    }
  }
}
node {
  name: "inverted_bottleneck1_6_1/Conv_1/BatchNorm/beta/Initializer/zeros"
  op: "Fill"
  input: "inverted_bottleneck1_6_1/Conv_1/BatchNorm/beta/Initializer/zeros/shape_as_tensor"
  input: "inverted_bottleneck1_6_1/Conv_1/BatchNorm/beta/Initializer/zeros/Const"
  attr {
    key: "T"
    value {
      type: DT_FLOAT
    }
  }
  attr {
    key: "_class"
    value {
      list {
        s: "loc:@inverted_bottleneck1_6_1/Conv_1/BatchNorm/beta"
      }
    }
  }
  attr {
    key: "index_type"
    value {
      type: DT_INT32
    }
  }
}
node {
  name: "inverted_bottleneck1_6_1/Conv_1/BatchNorm/beta"
  op: "VariableV2"
  attr {
    key: "_class"
    value {
      list {
        s: "loc:@inverted_bottleneck1_6_1/Conv_1/BatchNorm/beta"
      }
    }
  }
  attr {
    key: "container"
    value {
      s: ""
    }
  }
  attr {
    key: "dtype"
    value {
      type: DT_FLOAT
    }
  }
  attr {
    key: "shape"
    value {
      shape {
        dim {
          size: 24
        }
      }
    }
  }
  attr {
    key: "shared_name"
    value {
      s: ""
    }
  }
}
node {
  name: "inverted_bottleneck1_6_1/Conv_1/BatchNorm/beta/Assign"
  op: "Assign"
  input: "inverted_bottleneck1_6_1/Conv_1/BatchNorm/beta"
  input: "inverted_bottleneck1_6_1/Conv_1/BatchNorm/beta/Initializer/zeros"
  attr {
    key: "T"
    value {
      type: DT_FLOAT
    }
  }
  attr {
    key: "_class"
    value {
      list {
        s: "loc:@inverted_bottleneck1_6_1/Conv_1/BatchNorm/beta"
      }
    }
  }
  attr {
    key: "use_locking"
    value {
      b: true
    }
  }
  attr {
    key: "validate_shape"
    value {
      b: true
    }
  }
}
node {
  name: "inverted_bottleneck1_6_1/Conv_1/BatchNorm/beta/read"
  op: "Identity"
  input: "inverted_bottleneck1_6_1/Conv_1/BatchNorm/beta"
  attr {
    key: "T"
    value {
      type: DT_FLOAT
    }
  }
  attr {
    key: "_class"
    value {
      list {
        s: "loc:@inverted_bottleneck1_6_1/Conv_1/BatchNorm/beta"
      }
    }
  }
}
node {
  name: "inverted_bottleneck1_6_1/Conv_1/BatchNorm/moving_mean/Initializer/zeros/shape_as_tensor"
  op: "Const"
  attr {
    key: "_class"
    value {
      list {
        s: "loc:@inverted_bottleneck1_6_1/Conv_1/BatchNorm/moving_mean"
      }
    }
  }
  attr {
    key: "dtype"
    value {
      type: DT_INT32
    }
  }
  attr {
    key: "value"
    value {
      tensor {
        dtype: DT_INT32
        tensor_shape {
          dim {
            size: 1
          }
        }
        int_val: 24
      }
    }
  }
}
node {
  name: "inverted_bottleneck1_6_1/Conv_1/BatchNorm/moving_mean/Initializer/zeros/Const"
  op: "Const"
  attr {
    key: "_class"
    value {
      list {
        s: "loc:@inverted_bottleneck1_6_1/Conv_1/BatchNorm/moving_mean"
      }
    }
  }
  attr {
    key: "dtype"
    value {
      type: DT_FLOAT
    }
  }
  attr {
    key: "value"
    value {
      tensor {
        dtype: DT_FLOAT
        tensor_shape {
        }
        float_val: 0.0
      }
    }
  }
}
node {
  name: "inverted_bottleneck1_6_1/Conv_1/BatchNorm/moving_mean/Initializer/zeros"
  op: "Fill"
  input: "inverted_bottleneck1_6_1/Conv_1/BatchNorm/moving_mean/Initializer/zeros/shape_as_tensor"
  input: "inverted_bottleneck1_6_1/Conv_1/BatchNorm/moving_mean/Initializer/zeros/Const"
  attr {
    key: "T"
    value {
      type: DT_FLOAT
    }
  }
  attr {
    key: "_class"
    value {
      list {
        s: "loc:@inverted_bottleneck1_6_1/Conv_1/BatchNorm/moving_mean"
      }
    }
  }
  attr {
    key: "index_type"
    value {
      type: DT_INT32
    }
  }
}
node {
  name: "inverted_bottleneck1_6_1/Conv_1/BatchNorm/moving_mean"
  op: "VariableV2"
  attr {
    key: "_class"
    value {
      list {
        s: "loc:@inverted_bottleneck1_6_1/Conv_1/BatchNorm/moving_mean"
      }
    }
  }
  attr {
    key: "container"
    value {
      s: ""
    }
  }
  attr {
    key: "dtype"
    value {
      type: DT_FLOAT
    }
  }
  attr {
    key: "shape"
    value {
      shape {
        dim {
          size: 24
        }
      }
    }
  }
  attr {
    key: "shared_name"
    value {
      s: ""
    }
  }
}
node {
  name: "inverted_bottleneck1_6_1/Conv_1/BatchNorm/moving_mean/Assign"
  op: "Assign"
  input: "inverted_bottleneck1_6_1/Conv_1/BatchNorm/moving_mean"
  input: "inverted_bottleneck1_6_1/Conv_1/BatchNorm/moving_mean/Initializer/zeros"
  attr {
    key: "T"
    value {
      type: DT_FLOAT
    }
  }
  attr {
    key: "_class"
    value {
      list {
        s: "loc:@inverted_bottleneck1_6_1/Conv_1/BatchNorm/moving_mean"
      }
    }
  }
  attr {
    key: "use_locking"
    value {
      b: true
    }
  }
  attr {
    key: "validate_shape"
    value {
      b: true
    }
  }
}
node {
  name: "inverted_bottleneck1_6_1/Conv_1/BatchNorm/moving_mean/read"
  op: "Identity"
  input: "inverted_bottleneck1_6_1/Conv_1/BatchNorm/moving_mean"
  attr {
    key: "T"
    value {
      type: DT_FLOAT
    }
  }
  attr {
    key: "_class"
    value {
      list {
        s: "loc:@inverted_bottleneck1_6_1/Conv_1/BatchNorm/moving_mean"
      }
    }
  }
}
node {
  name: "inverted_bottleneck1_6_1/Conv_1/BatchNorm/moving_variance/Initializer/ones/shape_as_tensor"
  op: "Const"
  attr {
    key: "_class"
    value {
      list {
        s: "loc:@inverted_bottleneck1_6_1/Conv_1/BatchNorm/moving_variance"
      }
    }
  }
  attr {
    key: "dtype"
    value {
      type: DT_INT32
    }
  }
  attr {
    key: "value"
    value {
      tensor {
        dtype: DT_INT32
        tensor_shape {
          dim {
            size: 1
          }
        }
        int_val: 24
      }
    }
  }
}
node {
  name: "inverted_bottleneck1_6_1/Conv_1/BatchNorm/moving_variance/Initializer/ones/Const"
  op: "Const"
  attr {
    key: "_class"
    value {
      list {
        s: "loc:@inverted_bottleneck1_6_1/Conv_1/BatchNorm/moving_variance"
      }
    }
  }
  attr {
    key: "dtype"
    value {
      type: DT_FLOAT
    }
  }
  attr {
    key: "value"
    value {
      tensor {
        dtype: DT_FLOAT
        tensor_shape {
        }
        float_val: 1.0
      }
    }
  }
}
node {
  name: "inverted_bottleneck1_6_1/Conv_1/BatchNorm/moving_variance/Initializer/ones"
  op: "Fill"
  input: "inverted_bottleneck1_6_1/Conv_1/BatchNorm/moving_variance/Initializer/ones/shape_as_tensor"
  input: "inverted_bottleneck1_6_1/Conv_1/BatchNorm/moving_variance/Initializer/ones/Const"
  attr {
    key: "T"
    value {
      type: DT_FLOAT
    }
  }
  attr {
    key: "_class"
    value {
      list {
        s: "loc:@inverted_bottleneck1_6_1/Conv_1/BatchNorm/moving_variance"
      }
    }
  }
  attr {
    key: "index_type"
    value {
      type: DT_INT32
    }
  }
}
node {
  name: "inverted_bottleneck1_6_1/Conv_1/BatchNorm/moving_variance"
  op: "VariableV2"
  attr {
    key: "_class"
    value {
      list {
        s: "loc:@inverted_bottleneck1_6_1/Conv_1/BatchNorm/moving_variance"
      }
    }
  }
  attr {
    key: "container"
    value {
      s: ""
    }
  }
  attr {
    key: "dtype"
    value {
      type: DT_FLOAT
    }
  }
  attr {
    key: "shape"
    value {
      shape {
        dim {
          size: 24
        }
      }
    }
  }
  attr {
    key: "shared_name"
    value {
      s: ""
    }
  }
}
node {
  name: "inverted_bottleneck1_6_1/Conv_1/BatchNorm/moving_variance/Assign"
  op: "Assign"
  input: "inverted_bottleneck1_6_1/Conv_1/BatchNorm/moving_variance"
  input: "inverted_bottleneck1_6_1/Conv_1/BatchNorm/moving_variance/Initializer/ones"
  attr {
    key: "T"
    value {
      type: DT_FLOAT
    }
  }
  attr {
    key: "_class"
    value {
      list {
        s: "loc:@inverted_bottleneck1_6_1/Conv_1/BatchNorm/moving_variance"
      }
    }
  }
  attr {
    key: "use_locking"
    value {
      b: true
    }
  }
  attr {
    key: "validate_shape"
    value {
      b: true
    }
  }
}
node {
  name: "inverted_bottleneck1_6_1/Conv_1/BatchNorm/moving_variance/read"
  op: "Identity"
  input: "inverted_bottleneck1_6_1/Conv_1/BatchNorm/moving_variance"
  attr {
    key: "T"
    value {
      type: DT_FLOAT
    }
  }
  attr {
    key: "_class"
    value {
      list {
        s: "loc:@inverted_bottleneck1_6_1/Conv_1/BatchNorm/moving_variance"
      }
    }
  }
}
node {
  name: "inverted_bottleneck1_6_1/Conv_1/BatchNorm/Const_1"
  op: "Const"
  attr {
    key: "dtype"
    value {
      type: DT_FLOAT
    }
  }
  attr {
    key: "value"
    value {
      tensor {
        dtype: DT_FLOAT
        tensor_shape {
          dim {
          }
        }
      }
    }
  }
}
node {
  name: "inverted_bottleneck1_6_1/Conv_1/BatchNorm/Const_2"
  op: "Const"
  attr {
    key: "dtype"
    value {
      type: DT_FLOAT
    }
  }
  attr {
    key: "value"
    value {
      tensor {
        dtype: DT_FLOAT
        tensor_shape {
          dim {
          }
        }
      }
    }
  }
}
node {
  name: "inverted_bottleneck1_6_1/Conv_1/BatchNorm/FusedBatchNorm"
  op: "FusedBatchNorm"
  input: "inverted_bottleneck1_6_1/Conv_1/Conv2D"
  input: "inverted_bottleneck1_6_1/Conv_1/BatchNorm/Const"
  input: "inverted_bottleneck1_6_1/Conv_1/BatchNorm/beta/read"
  input: "inverted_bottleneck1_6_1/Conv_1/BatchNorm/Const_1"
  input: "inverted_bottleneck1_6_1/Conv_1/BatchNorm/Const_2"
  attr {
    key: "T"
    value {
      type: DT_FLOAT
    }
  }
  attr {
    key: "data_format"
    value {
      s: "NHWC"
    }
  }
  attr {
    key: "epsilon"
    value {
      f: 0.0010000000474974513
    }
  }
  attr {
    key: "is_training"
    value {
      b: true
    }
  }
}
node {
  name: "inverted_bottleneck1_6_1/Conv_1/BatchNorm/Const_3"
  op: "Const"
  attr {
    key: "dtype"
    value {
      type: DT_FLOAT
    }
  }
  attr {
    key: "value"
    value {
      tensor {
        dtype: DT_FLOAT
        tensor_shape {
        }
        float_val: 0.0010000000474974513
      }
    }
  }
}
node {
  name: "inverted_bottleneck1_6_1/Conv_1/BatchNorm/AssignMovingAvg/read"
  op: "Identity"
  input: "inverted_bottleneck1_6_1/Conv_1/BatchNorm/moving_mean"
  attr {
    key: "T"
    value {
      type: DT_FLOAT
    }
  }
  attr {
    key: "_class"
    value {
      list {
        s: "loc:@inverted_bottleneck1_6_1/Conv_1/BatchNorm/moving_mean"
      }
    }
  }
}
node {
  name: "inverted_bottleneck1_6_1/Conv_1/BatchNorm/AssignMovingAvg/Sub"
  op: "Sub"
  input: "inverted_bottleneck1_6_1/Conv_1/BatchNorm/AssignMovingAvg/read"
  input: "inverted_bottleneck1_6_1/Conv_1/BatchNorm/FusedBatchNorm:1"
  attr {
    key: "T"
    value {
      type: DT_FLOAT
    }
  }
  attr {
    key: "_class"
…
  input: "save/RestoreV2:425"
  attr {
    key: "T"
    value {
      type: DT_FLOAT
    }
  }
  attr {
    key: "_class"
    value {
      list {
        s: "loc:@inverted_bottleneck9_6_0/Conv_1/BatchNorm/moving_variance"
      }
    }
  }
  attr {
    key: "use_locking"
    value {
      b: true
    }
  }
  attr {
    key: "validate_shape"
    value {
      b: true
    }
  }
}
node {
  name: "save/Assign_426"
  op: "Assign"
  input: "inverted_bottleneck9_6_0/Conv_1/weights"
  input: "save/RestoreV2:426"
  attr {
    key: "T"
    value {
      type: DT_FLOAT
    }
  }
  attr {
    key: "_class"
    value {
      list {
        s: "loc:@inverted_bottleneck9_6_0/Conv_1/weights"
      }
    }
  }
  attr {
    key: "use_locking"
    value {
      b: true
    }
  }
  attr {
    key: "validate_shape"
    value {
      b: true
    }
  }
}
node {
  name: "save/Assign_427"
  op: "Assign"
  input: "inverted_bottleneck9_6_0/Conv_1/weights/Adam"
  input: "save/RestoreV2:427"
  attr {
    key: "T"
    value {
      type: DT_FLOAT
    }
  }
  attr {
    key: "_class"
    value {
      list {
        s: "loc:@inverted_bottleneck9_6_0/Conv_1/weights"
      }
    }
  }
  attr {
    key: "use_locking"
    value {
      b: true
    }
  }
  attr {
    key: "validate_shape"
    value {
      b: true
    }
  }
}
node {
  name: "save/Assign_428"
  op: "Assign"
  input: "inverted_bottleneck9_6_0/Conv_1/weights/Adam_1"
  input: "save/RestoreV2:428"
  attr {
    key: "T"
    value {
      type: DT_FLOAT
    }
  }
  attr {
    key: "_class"
    value {
      list {
        s: "loc:@inverted_bottleneck9_6_0/Conv_1/weights"
      }
    }
  }
  attr {
    key: "use_locking"
    value {
      b: true
    }
  }
  attr {
    key: "validate_shape"
    value {
      b: true
    }
  }
}
node {
  name: "save/Assign_429"
  op: "Assign"
  input: "inverted_bottleneck9_6_0/SeparableConv2d/BatchNorm/beta"
  input: "save/RestoreV2:429"
  attr {
    key: "T"
    value {
      type: DT_FLOAT
    }
  }
  attr {
    key: "_class"
    value {
      list {
        s: "loc:@inverted_bottleneck9_6_0/SeparableConv2d/BatchNorm/beta"
      }
    }
  }
  attr {
    key: "use_locking"
    value {
      b: true
    }
  }
  attr {
    key: "validate_shape"
    value {
      b: true
    }
  }
}
node {
  name: "save/Assign_430"
  op: "Assign"
  input: "inverted_bottleneck9_6_0/SeparableConv2d/BatchNorm/beta/Adam"
  input: "save/RestoreV2:430"
  attr {
    key: "T"
    value {
      type: DT_FLOAT
    }
  }
  attr {
    key: "_class"
    value {
      list {
        s: "loc:@inverted_bottleneck9_6_0/SeparableConv2d/BatchNorm/beta"
      }
    }
  }
  attr {
    key: "use_locking"
    value {
      b: true
    }
  }
  attr {
    key: "validate_shape"
    value {
      b: true
    }
  }
}
node {
  name: "save/Assign_431"
  op: "Assign"
  input: "inverted_bottleneck9_6_0/SeparableConv2d/BatchNorm/beta/Adam_1"
  input: "save/RestoreV2:431"
  attr {
    key: "T"
    value {
      type: DT_FLOAT
    }
  }
  attr {
    key: "_class"
    value {
      list {
        s: "loc:@inverted_bottleneck9_6_0/SeparableConv2d/BatchNorm/beta"
      }
    }
  }
  attr {
    key: "use_locking"
    value {
      b: true
    }
  }
  attr {
    key: "validate_shape"
    value {
      b: true
    }
  }
}
node {
  name: "save/Assign_432"
  op: "Assign"
  input: "inverted_bottleneck9_6_0/SeparableConv2d/BatchNorm/moving_mean"
  input: "save/RestoreV2:432"
  attr {
    key: "T"
    value {
      type: DT_FLOAT
    }
  }
  attr {
    key: "_class"
    value {
      list {
        s: "loc:@inverted_bottleneck9_6_0/SeparableConv2d/BatchNorm/moving_mean"
      }
    }
  }
  attr {
    key: "use_locking"
    value {
      b: true
    }
  }
  attr {
    key: "validate_shape"
    value {
      b: true
    }
  }
}
node {
  name: "save/Assign_433"
  op: "Assign"
  input: "inverted_bottleneck9_6_0/SeparableConv2d/BatchNorm/moving_variance"
  input: "save/RestoreV2:433"
  attr {
    key: "T"
    value {
      type: DT_FLOAT
    }
  }
  attr {
    key: "_class"
    value {
      list {
        s: "loc:@inverted_bottleneck9_6_0/SeparableConv2d/BatchNorm/moving_variance"
      }
    }
  }
  attr {
    key: "use_locking"
    value {
      b: true
    }
  }
  attr {
    key: "validate_shape"
    value {
      b: true
    }
  }
}
node {
  name: "save/Assign_434"
  op: "Assign"
  input: "inverted_bottleneck9_6_0/SeparableConv2d/depthwise_weights"
  input: "save/RestoreV2:434"
  attr {
    key: "T"
    value {
      type: DT_FLOAT
    }
  }
  attr {
    key: "_class"
    value {
      list {
        s: "loc:@inverted_bottleneck9_6_0/SeparableConv2d/depthwise_weights"
      }
    }
  }
  attr {
    key: "use_locking"
    value {
      b: true
    }
  }
  attr {
    key: "validate_shape"
    value {
      b: true
    }
  }
}
node {
  name: "save/Assign_435"
  op: "Assign"
  input: "inverted_bottleneck9_6_0/SeparableConv2d/depthwise_weights/Adam"
  input: "save/RestoreV2:435"
  attr {
    key: "T"
    value {
      type: DT_FLOAT
    }
  }
  attr {
    key: "_class"
    value {
      list {
        s: "loc:@inverted_bottleneck9_6_0/SeparableConv2d/depthwise_weights"
      }
    }
  }
  attr {
    key: "use_locking"
    value {
      b: true
    }
  }
  attr {
    key: "validate_shape"
    value {
      b: true
    }
  }
}
node {
  name: "save/Assign_436"
  op: "Assign"
  input: "inverted_bottleneck9_6_0/SeparableConv2d/depthwise_weights/Adam_1"
  input: "save/RestoreV2:436"
  attr {
    key: "T"
    value {
      type: DT_FLOAT
    }
  }
  attr {
    key: "_class"
    value {
      list {
        s: "loc:@inverted_bottleneck9_6_0/SeparableConv2d/depthwise_weights"
      }
    }
  }
  attr {
    key: "use_locking"
    value {
      b: true
    }
  }
  attr {
    key: "validate_shape"
    value {
      b: true
    }
  }
}
node {
  name: "save/Assign_437"
  op: "Assign"
  input: "train/beta1_power"
  input: "save/RestoreV2:437"
  attr {
    key: "T"
    value {
      type: DT_FLOAT
    }
  }
  attr {
    key: "_class"
    value {
      list {
        s: "loc:@Conv/BatchNorm/beta"
      }
    }
  }
  attr {
    key: "use_locking"
    value {
      b: true
    }
  }
  attr {
    key: "validate_shape"
    value {
      b: true
    }
  }
}
node {
  name: "save/Assign_438"
  op: "Assign"
  input: "train/beta2_power"
  input: "save/RestoreV2:438"
  attr {
    key: "T"
    value {
      type: DT_FLOAT
    }
  }
  attr {
    key: "_class"
    value {
      list {
        s: "loc:@Conv/BatchNorm/beta"
      }
    }
  }
  attr {
    key: "use_locking"
    value {
      b: true
    }
  }
  attr {
    key: "validate_shape"
    value {
      b: true
    }
  }
}
node {
  name: "save/restore_all"
  op: "NoOp"
  input: "^save/Assign"
  input: "^save/Assign_1"
  input: "^save/Assign_2"
  input: "^save/Assign_3"
  input: "^save/Assign_4"
  input: "^save/Assign_5"
  input: "^save/Assign_6"
  input: "^save/Assign_7"
  input: "^save/Assign_8"
  input: "^save/Assign_9"
  input: "^save/Assign_10"
  input: "^save/Assign_11"
  input: "^save/Assign_12"
  input: "^save/Assign_13"
  input: "^save/Assign_14"
  input: "^save/Assign_15"
  input: "^save/Assign_16"
  input: "^save/Assign_17"
  input: "^save/Assign_18"
  input: "^save/Assign_19"
  input: "^save/Assign_20"
  input: "^save/Assign_21"
  input: "^save/Assign_22"
  input: "^save/Assign_23"
  input: "^save/Assign_24"
  input: "^save/Assign_25"
  input: "^save/Assign_26"
  input: "^save/Assign_27"
  input: "^save/Assign_28"
  input: "^save/Assign_29"
  input: "^save/Assign_30"
  input: "^save/Assign_31"
  input: "^save/Assign_32"
  input: "^save/Assign_33"
  input: "^save/Assign_34"
  input: "^save/Assign_35"
  input: "^save/Assign_36"
  input: "^save/Assign_37"
  input: "^save/Assign_38"
  input: "^save/Assign_39"
  input: "^save/Assign_40"
  input: "^save/Assign_41"
  input: "^save/Assign_42"
  input: "^save/Assign_43"
  input: "^save/Assign_44"
  input: "^save/Assign_45"
  input: "^save/Assign_46"
  input: "^save/Assign_47"
  input: "^save/Assign_48"
  input: "^save/Assign_49"
  input: "^save/Assign_50"
  input: "^save/Assign_51"
  input: "^save/Assign_52"
  input: "^save/Assign_53"
  input: "^save/Assign_54"
  input: "^save/Assign_55"
  input: "^save/Assign_56"
  input: "^save/Assign_57"
  input: "^save/Assign_58"
  input: "^save/Assign_59"
  input: "^save/Assign_60"
  input: "^save/Assign_61"
  input: "^save/Assign_62"
  input: "^save/Assign_63"
  input: "^save/Assign_64"
  input: "^save/Assign_65"
  input: "^save/Assign_66"
  input: "^save/Assign_67"
  input: "^save/Assign_68"
  input: "^save/Assign_69"
  input: "^save/Assign_70"
  input: "^save/Assign_71"
  input: "^save/Assign_72"
  input: "^save/Assign_73"
  input: "^save/Assign_74"
  input: "^save/Assign_75"
  input: "^save/Assign_76"
  input: "^save/Assign_77"
  input: "^save/Assign_78"
  input: "^save/Assign_79"
  input: "^save/Assign_80"
  input: "^save/Assign_81"
  input: "^save/Assign_82"
  input: "^save/Assign_83"
  input: "^save/Assign_84"
  input: "^save/Assign_85"
  input: "^save/Assign_86"
  input: "^save/Assign_87"
  input: "^save/Assign_88"
  input: "^save/Assign_89"
  input: "^save/Assign_90"
  input: "^save/Assign_91"
  input: "^save/Assign_92"
  input: "^save/Assign_93"
  input: "^save/Assign_94"
  input: "^save/Assign_95"
  input: "^save/Assign_96"
  input: "^save/Assign_97"
  input: "^save/Assign_98"
  input: "^save/Assign_99"
  input: "^save/Assign_100"
  input: "^save/Assign_101"
  input: "^save/Assign_102"
  input: "^save/Assign_103"
  input: "^save/Assign_104"
  input: "^save/Assign_105"
  input: "^save/Assign_106"
  input: "^save/Assign_107"
  input: "^save/Assign_108"
  input: "^save/Assign_109"
  input: "^save/Assign_110"
  input: "^save/Assign_111"
  input: "^save/Assign_112"
  input: "^save/Assign_113"
  input: "^save/Assign_114"
  input: "^save/Assign_115"
  input: "^save/Assign_116"
  input: "^save/Assign_117"
  input: "^save/Assign_118"
  input: "^save/Assign_119"
  input: "^save/Assign_120"
  input: "^save/Assign_121"
  input: "^save/Assign_122"
  input: "^save/Assign_123"
  input: "^save/Assign_124"
  input: "^save/Assign_125"
  input: "^save/Assign_126"
  input: "^save/Assign_127"
  input: "^save/Assign_128"
  input: "^save/Assign_129"
  input: "^save/Assign_130"
  input: "^save/Assign_131"
  input: "^save/Assign_132"
  input: "^save/Assign_133"
  input: "^save/Assign_134"
  input: "^save/Assign_135"
  input: "^save/Assign_136"
  input: "^save/Assign_137"
  input: "^save/Assign_138"
  input: "^save/Assign_139"
  input: "^save/Assign_140"
  input: "^save/Assign_141"
  input: "^save/Assign_142"
  input: "^save/Assign_143"
  input: "^save/Assign_144"
  input: "^save/Assign_145"
  input: "^save/Assign_146"
  input: "^save/Assign_147"
  input: "^save/Assign_148"
  input: "^save/Assign_149"
  input: "^save/Assign_150"
  input: "^save/Assign_151"
  input: "^save/Assign_152"
  input: "^save/Assign_153"
  input: "^save/Assign_154"
  input: "^save/Assign_155"
  input: "^save/Assign_156"
  input: "^save/Assign_157"
  input: "^save/Assign_158"
  input: "^save/Assign_159"
  input: "^save/Assign_160"
  input: "^save/Assign_161"
  input: "^save/Assign_162"
  input: "^save/Assign_163"
  input: "^save/Assign_164"
  input: "^save/Assign_165"
  input: "^save/Assign_166"
  input: "^save/Assign_167"
  input: "^save/Assign_168"
  input: "^save/Assign_169"
  input: "^save/Assign_170"
  input: "^save/Assign_171"
  input: "^save/Assign_172"
  input: "^save/Assign_173"
  input: "^save/Assign_174"
  input: "^save/Assign_175"
  input: "^save/Assign_176"
  input: "^save/Assign_177"
  input: "^save/Assign_178"
  input: "^save/Assign_179"
  input: "^save/Assign_180"
  input: "^save/Assign_181"
  input: "^save/Assign_182"
  input: "^save/Assign_183"
  input: "^save/Assign_184"
  input: "^save/Assign_185"
  input: "^save/Assign_186"
  input: "^save/Assign_187"
  input: "^save/Assign_188"
  input: "^save/Assign_189"
  input: "^save/Assign_190"
  input: "^save/Assign_191"
  input: "^save/Assign_192"
  input: "^save/Assign_193"
  input: "^save/Assign_194"
  input: "^save/Assign_195"
  input: "^save/Assign_196"
  input: "^save/Assign_197"
  input: "^save/Assign_198"
  input: "^save/Assign_199"
  input: "^save/Assign_200"
  input: "^save/Assign_201"
  input: "^save/Assign_202"
  input: "^save/Assign_203"
  input: "^save/Assign_204"
  input: "^save/Assign_205"
  input: "^save/Assign_206"
  input: "^save/Assign_207"
  input: "^save/Assign_208"
  input: "^save/Assign_209"
  input: "^save/Assign_210"
  input: "^save/Assign_211"
  input: "^save/Assign_212"
  input: "^save/Assign_213"
  input: "^save/Assign_214"
  input: "^save/Assign_215"
  input: "^save/Assign_216"
  input: "^save/Assign_217"
  input: "^save/Assign_218"
  input: "^save/Assign_219"
  input: "^save/Assign_220"
  input: "^save/Assign_221"
  input: "^save/Assign_222"
  input: "^save/Assign_223"
  input: "^save/Assign_224"
  input: "^save/Assign_225"
  input: "^save/Assign_226"
  input: "^save/Assign_227"
  input: "^save/Assign_228"
  input: "^save/Assign_229"
  input: "^save/Assign_230"
  input: "^save/Assign_231"
  input: "^save/Assign_232"
  input: "^save/Assign_233"
  input: "^save/Assign_234"
  input: "^save/Assign_235"
  input: "^save/Assign_236"
  input: "^save/Assign_237"
  input: "^save/Assign_238"
  input: "^save/Assign_239"
  input: "^save/Assign_240"
  input: "^save/Assign_241"
  input: "^save/Assign_242"
  input: "^save/Assign_243"
  input: "^save/Assign_244"
  input: "^save/Assign_245"
  input: "^save/Assign_246"
  input: "^save/Assign_247"
  input: "^save/Assign_248"
  input: "^save/Assign_249"
  input: "^save/Assign_250"
  input: "^save/Assign_251"
  input: "^save/Assign_252"
  input: "^save/Assign_253"
  input: "^save/Assign_254"
  input: "^save/Assign_255"
  input: "^save/Assign_256"
  input: "^save/Assign_257"
  input: "^save/Assign_258"
  input: "^save/Assign_259"
  input: "^save/Assign_260"
  input: "^save/Assign_261"
  input: "^save/Assign_262"
  input: "^save/Assign_263"
  input: "^save/Assign_264"
  input: "^save/Assign_265"
  input: "^save/Assign_266"
  input: "^save/Assign_267"
  input: "^save/Assign_268"
  input: "^save/Assign_269"
  input: "^save/Assign_270"
  input: "^save/Assign_271"
  input: "^save/Assign_272"
  input: "^save/Assign_273"
  input: "^save/Assign_274"
  input: "^save/Assign_275"
  input: "^save/Assign_276"
  input: "^save/Assign_277"
  input: "^save/Assign_278"
  input: "^save/Assign_279"
  input: "^save/Assign_280"
  input: "^save/Assign_281"
  input: "^save/Assign_282"
  input: "^save/Assign_283"
  input: "^save/Assign_284"
  input: "^save/Assign_285"
  input: "^save/Assign_286"
  input: "^save/Assign_287"
  input: "^save/Assign_288"
  input: "^save/Assign_289"
  input: "^save/Assign_290"
  input: "^save/Assign_291"
  input: "^save/Assign_292"
  input: "^save/Assign_293"
  input: "^save/Assign_294"
  input: "^save/Assign_295"
  input: "^save/Assign_296"
  input: "^save/Assign_297"
  input: "^save/Assign_298"
  input: "^save/Assign_299"
  input: "^save/Assign_300"
  input: "^save/Assign_301"
  input: "^save/Assign_302"
  input: "^save/Assign_303"
  input: "^save/Assign_304"
  input: "^save/Assign_305"
  input: "^save/Assign_306"
  input: "^save/Assign_307"
  input: "^save/Assign_308"
  input: "^save/Assign_309"
  input: "^save/Assign_310"
  input: "^save/Assign_311"
  input: "^save/Assign_312"
  input: "^save/Assign_313"
  input: "^save/Assign_314"
  input: "^save/Assign_315"
  input: "^save/Assign_316"
  input: "^save/Assign_317"
  input: "^save/Assign_318"
  input: "^save/Assign_319"
  input: "^save/Assign_320"
  input: "^save/Assign_321"
  input: "^save/Assign_322"
  input: "^save/Assign_323"
  input: "^save/Assign_324"
  input: "^save/Assign_325"
  input: "^save/Assign_326"
  input: "^save/Assign_327"
  input: "^save/Assign_328"
  input: "^save/Assign_329"
  input: "^save/Assign_330"
  input: "^save/Assign_331"
  input: "^save/Assign_332"
  input: "^save/Assign_333"
  input: "^save/Assign_334"
  input: "^save/Assign_335"
  input: "^save/Assign_336"
  input: "^save/Assign_337"
  input: "^save/Assign_338"
  input: "^save/Assign_339"
  input: "^save/Assign_340"
  input: "^save/Assign_341"
  input: "^save/Assign_342"
  input: "^save/Assign_343"
  input: "^save/Assign_344"
  input: "^save/Assign_345"
  input: "^save/Assign_346"
  input: "^save/Assign_347"
  input: "^save/Assign_348"
  input: "^save/Assign_349"
  input: "^save/Assign_350"
  input: "^save/Assign_351"
  input: "^save/Assign_352"
  input: "^save/Assign_353"
  input: "^save/Assign_354"
  input: "^save/Assign_355"
  input: "^save/Assign_356"
  input: "^save/Assign_357"
  input: "^save/Assign_358"
  input: "^save/Assign_359"
  input: "^save/Assign_360"
  input: "^save/Assign_361"
  input: "^save/Assign_362"
  input: "^save/Assign_363"
  input: "^save/Assign_364"
  input: "^save/Assign_365"
  input: "^save/Assign_366"
  input: "^save/Assign_367"
  input: "^save/Assign_368"
  input: "^save/Assign_369"
  input: "^save/Assign_370"
  input: "^save/Assign_371"
  input: "^save/Assign_372"
  input: "^save/Assign_373"
  input: "^save/Assign_374"
  input: "^save/Assign_375"
  input: "^save/Assign_376"
  input: "^save/Assign_377"
  input: "^save/Assign_378"
  input: "^save/Assign_379"
  input: "^save/Assign_380"
  input: "^save/Assign_381"
  input: "^save/Assign_382"
  input: "^save/Assign_383"
  input: "^save/Assign_384"
  input: "^save/Assign_385"
  input: "^save/Assign_386"
  input: "^save/Assign_387"
  input: "^save/Assign_388"
  input: "^save/Assign_389"
  input: "^save/Assign_390"
  input: "^save/Assign_391"
  input: "^save/Assign_392"
  input: "^save/Assign_393"
  input: "^save/Assign_394"
  input: "^save/Assign_395"
  input: "^save/Assign_396"
  input: "^save/Assign_397"
  input: "^save/Assign_398"
  input: "^save/Assign_399"
  input: "^save/Assign_400"
  input: "^save/Assign_401"
  input: "^save/Assign_402"
  input: "^save/Assign_403"
  input: "^save/Assign_404"
  input: "^save/Assign_405"
  input: "^save/Assign_406"
  input: "^save/Assign_407"
  input: "^save/Assign_408"
  input: "^save/Assign_409"
  input: "^save/Assign_410"
  input: "^save/Assign_411"
  input: "^save/Assign_412"
  input: "^save/Assign_413"
  input: "^save/Assign_414"
  input: "^save/Assign_415"
  input: "^save/Assign_416"
  input: "^save/Assign_417"
  input: "^save/Assign_418"
  input: "^save/Assign_419"
  input: "^save/Assign_420"
  input: "^save/Assign_421"
  input: "^save/Assign_422"
  input: "^save/Assign_423"
  input: "^save/Assign_424"
  input: "^save/Assign_425"
  input: "^save/Assign_426"
  input: "^save/Assign_427"
  input: "^save/Assign_428"
  input: "^save/Assign_429"
  input: "^save/Assign_430"
  input: "^save/Assign_431"
  input: "^save/Assign_432"
  input: "^save/Assign_433"
  input: "^save/Assign_434"
  input: "^save/Assign_435"
  input: "^save/Assign_436"
  input: "^save/Assign_437"
  input: "^save/Assign_438"
}
node {
  name: "Merge/MergeSummary"
  op: "MergeSummary"
  input: "cross_entropy_1"
  input: "accuracy"
  attr {
    key: "N"
    value {
      i: 2
    }
  }
}
node {
  name: "init"
  op: "NoOp"
  input: "^init_conv/Conv/weights/Assign"
  input: "^init_conv/Conv/BatchNorm/beta/Assign"
  input: "^init_conv/Conv/BatchNorm/moving_mean/Assign"
  input: "^init_conv/Conv/BatchNorm/moving_variance/Assign"
  input: "^inverted_bottleneck0_1_0/Conv/weights/Assign"
  input: "^inverted_bottleneck0_1_0/Conv/BatchNorm/beta/Assign"
  input: "^inverted_bottleneck0_1_0/Conv/BatchNorm/moving_mean/Assign"
  input: "^inverted_bottleneck0_1_0/Conv/BatchNorm/moving_variance/Assign"
  input: "^inverted_bottleneck0_1_0/SeparableConv2d/depthwise_weights/Assign"
  input: "^inverted_bottleneck0_1_0/SeparableConv2d/BatchNorm/beta/Assign"
  input: "^inverted_bottleneck0_1_0/SeparableConv2d/BatchNorm/moving_mean/Assign"
  input: "^inverted_bottleneck0_1_0/SeparableConv2d/BatchNorm/moving_variance/Assign"
  input: "^inverted_bottleneck0_1_0/Conv_1/weights/Assign"
  input: "^inverted_bottleneck0_1_0/Conv_1/BatchNorm/beta/Assign"
  input: "^inverted_bottleneck0_1_0/Conv_1/BatchNorm/moving_mean/Assign"
  input: "^inverted_bottleneck0_1_0/Conv_1/BatchNorm/moving_variance/Assign"
  input: "^inverted_bottleneck1_6_1/Conv/weights/Assign"
  input: "^inverted_bottleneck1_6_1/Conv/BatchNorm/beta/Assign"
  input: "^inverted_bottleneck1_6_1/Conv/BatchNorm/moving_mean/Assign"
  input: "^inverted_bottleneck1_6_1/Conv/BatchNorm/moving_variance/Assign"
  input: "^inverted_bottleneck1_6_1/SeparableConv2d/depthwise_weights/Assign"
  input: "^inverted_bottleneck1_6_1/SeparableConv2d/BatchNorm/beta/Assign"
  input: "^inverted_bottleneck1_6_1/SeparableConv2d/BatchNorm/moving_mean/Assign"
  input: "^inverted_bottleneck1_6_1/SeparableConv2d/BatchNorm/moving_variance/Assign"
  input: "^inverted_bottleneck1_6_1/Conv_1/weights/Assign"
  input: "^inverted_bottleneck1_6_1/Conv_1/BatchNorm/beta/Assign"
  input: "^inverted_bottleneck1_6_1/Conv_1/BatchNorm/moving_mean/Assign"
  input: "^inverted_bottleneck1_6_1/Conv_1/BatchNorm/moving_variance/Assign"
  input: "^inverted_bottleneck2_6_0/Conv/weights/Assign"
  input: "^inverted_bottleneck2_6_0/Conv/BatchNorm/beta/Assign"
  input: "^inverted_bottleneck2_6_0/Conv/BatchNorm/moving_mean/Assign"
  input: "^inverted_bottleneck2_6_0/Conv/BatchNorm/moving_variance/Assign"
  input: "^inverted_bottleneck2_6_0/SeparableConv2d/depthwise_weights/Assign"
  input: "^inverted_bottleneck2_6_0/SeparableConv2d/BatchNorm/beta/Assign"
  input: "^inverted_bottleneck2_6_0/SeparableConv2d/BatchNorm/moving_mean/Assign"
  input: "^inverted_bottleneck2_6_0/SeparableConv2d/BatchNorm/moving_variance/Assign"
  input: "^inverted_bottleneck2_6_0/Conv_1/weights/Assign"
  input: "^inverted_bottleneck2_6_0/Conv_1/BatchNorm/beta/Assign"
  input: "^inverted_bottleneck2_6_0/Conv_1/BatchNorm/moving_mean/Assign"
  input: "^inverted_bottleneck2_6_0/Conv_1/BatchNorm/moving_variance/Assign"
  input: "^inverted_bottleneck3_6_1/Conv/weights/Assign"
  input: "^inverted_bottleneck3_6_1/Conv/BatchNorm/beta/Assign"
  input: "^inverted_bottleneck3_6_1/Conv/BatchNorm/moving_mean/Assign"
  input: "^inverted_bottleneck3_6_1/Conv/BatchNorm/moving_variance/Assign"
  input: "^inverted_bottleneck3_6_1/SeparableConv2d/depthwise_weights/Assign"
  input: "^inverted_bottleneck3_6_1/SeparableConv2d/BatchNorm/beta/Assign"
  input: "^inverted_bottleneck3_6_1/SeparableConv2d/BatchNorm/moving_mean/Assign"
  input: "^inverted_bottleneck3_6_1/SeparableConv2d/BatchNorm/moving_variance/Assign"
  input: "^inverted_bottleneck3_6_1/Conv_1/weights/Assign"
  input: "^inverted_bottleneck3_6_1/Conv_1/BatchNorm/beta/Assign"
  input: "^inverted_bottleneck3_6_1/Conv_1/BatchNorm/moving_mean/Assign"
  input: "^inverted_bottleneck3_6_1/Conv_1/BatchNorm/moving_variance/Assign"
  input: "^inverted_bottleneck4_6_0/Conv/weights/Assign"
  input: "^inverted_bottleneck4_6_0/Conv/BatchNorm/beta/Assign"
  input: "^inverted_bottleneck4_6_0/Conv/BatchNorm/moving_mean/Assign"
  input: "^inverted_bottleneck4_6_0/Conv/BatchNorm/moving_variance/Assign"
  input: "^inverted_bottleneck4_6_0/SeparableConv2d/depthwise_weights/Assign"
  input: "^inverted_bottleneck4_6_0/SeparableConv2d/BatchNorm/beta/Assign"
  input: "^inverted_bottleneck4_6_0/SeparableConv2d/BatchNorm/moving_mean/Assign"
  input: "^inverted_bottleneck4_6_0/SeparableConv2d/BatchNorm/moving_variance/Assign"
  input: "^inverted_bottleneck4_6_0/Conv_1/weights/Assign"
  input: "^inverted_bottleneck4_6_0/Conv_1/BatchNorm/beta/Assign"
  input: "^inverted_bottleneck4_6_0/Conv_1/BatchNorm/moving_mean/Assign"
  input: "^inverted_bottleneck4_6_0/Conv_1/BatchNorm/moving_variance/Assign"
  input: "^inverted_bottleneck5_6_0/Conv/weights/Assign"
  input: "^inverted_bottleneck5_6_0/Conv/BatchNorm/beta/Assign"
  input: "^inverted_bottleneck5_6_0/Conv/BatchNorm/moving_mean/Assign"
  input: "^inverted_bottleneck5_6_0/Conv/BatchNorm/moving_variance/Assign"
  input: "^inverted_bottleneck5_6_0/SeparableConv2d/depthwise_weights/Assign"
  input: "^inverted_bottleneck5_6_0/SeparableConv2d/BatchNorm/beta/Assign"
  input: "^inverted_bottleneck5_6_0/SeparableConv2d/BatchNorm/moving_mean/Assign"
  input: "^inverted_bottleneck5_6_0/SeparableConv2d/BatchNorm/moving_variance/Assign"
  input: "^inverted_bottleneck5_6_0/Conv_1/weights/Assign"
  input: "^inverted_bottleneck5_6_0/Conv_1/BatchNorm/beta/Assign"
  input: "^inverted_bottleneck5_6_0/Conv_1/BatchNorm/moving_mean/Assign"
  input: "^inverted_bottleneck5_6_0/Conv_1/BatchNorm/moving_variance/Assign"
  input: "^inverted_bottleneck6_6_1/Conv/weights/Assign"
  input: "^inverted_bottleneck6_6_1/Conv/BatchNorm/beta/Assign"
  input: "^inverted_bottleneck6_6_1/Conv/BatchNorm/moving_mean/Assign"
  input: "^inverted_bottleneck6_6_1/Conv/BatchNorm/moving_variance/Assign"
  input: "^inverted_bottleneck6_6_1/SeparableConv2d/depthwise_weights/Assign"
  input: "^inverted_bottleneck6_6_1/SeparableConv2d/BatchNorm/beta/Assign"
  input: "^inverted_bottleneck6_6_1/SeparableConv2d/BatchNorm/moving_mean/Assign"
  input: "^inverted_bottleneck6_6_1/SeparableConv2d/BatchNorm/moving_variance/Assign"
  input: "^inverted_bottleneck6_6_1/Conv_1/weights/Assign"
  input: "^inverted_bottleneck6_6_1/Conv_1/BatchNorm/beta/Assign"
  input: "^inverted_bottleneck6_6_1/Conv_1/BatchNorm/moving_mean/Assign"
  input: "^inverted_bottleneck6_6_1/Conv_1/BatchNorm/moving_variance/Assign"
  input: "^inverted_bottleneck7_6_0/Conv/weights/Assign"
  input: "^inverted_bottleneck7_6_0/Conv/BatchNorm/beta/Assign"
  input: "^inverted_bottleneck7_6_0/Conv/BatchNorm/moving_mean/Assign"
  input: "^inverted_bottleneck7_6_0/Conv/BatchNorm/moving_variance/Assign"
  input: "^inverted_bottleneck7_6_0/SeparableConv2d/depthwise_weights/Assign"
  input: "^inverted_bottleneck7_6_0/SeparableConv2d/BatchNorm/beta/Assign"
  input: "^inverted_bottleneck7_6_0/SeparableConv2d/BatchNorm/moving_mean/Assign"
  input: "^inverted_bottleneck7_6_0/SeparableConv2d/BatchNorm/moving_variance/Assign"
  input: "^inverted_bottleneck7_6_0/Conv_1/weights/Assign"
  input: "^inverted_bottleneck7_6_0/Conv_1/BatchNorm/beta/Assign"
  input: "^inverted_bottleneck7_6_0/Conv_1/BatchNorm/moving_mean/Assign"
  input: "^inverted_bottleneck7_6_0/Conv_1/BatchNorm/moving_variance/Assign"
  input: "^inverted_bottleneck8_6_0/Conv/weights/Assign"
  input: "^inverted_bottleneck8_6_0/Conv/BatchNorm/beta/Assign"
  input: "^inverted_bottleneck8_6_0/Conv/BatchNorm/moving_mean/Assign"
  input: "^inverted_bottleneck8_6_0/Conv/BatchNorm/moving_variance/Assign"
  input: "^inverted_bottleneck8_6_0/SeparableConv2d/depthwise_weights/Assign"
  input: "^inverted_bottleneck8_6_0/SeparableConv2d/BatchNorm/beta/Assign"
  input: "^inverted_bottleneck8_6_0/SeparableConv2d/BatchNorm/moving_mean/Assign"
  input: "^inverted_bottleneck8_6_0/SeparableConv2d/BatchNorm/moving_variance/Assign"
  input: "^inverted_bottleneck8_6_0/Conv_1/weights/Assign"
  input: "^inverted_bottleneck8_6_0/Conv_1/BatchNorm/beta/Assign"
  input: "^inverted_bottleneck8_6_0/Conv_1/BatchNorm/moving_mean/Assign"
  input: "^inverted_bottleneck8_6_0/Conv_1/BatchNorm/moving_variance/Assign"
  input: "^inverted_bottleneck9_6_0/Conv/weights/Assign"
  input: "^inverted_bottleneck9_6_0/Conv/BatchNorm/beta/Assign"
  input: "^inverted_bottleneck9_6_0/Conv/BatchNorm/moving_mean/Assign"
  input: "^inverted_bottleneck9_6_0/Conv/BatchNorm/moving_variance/Assign"
  input: "^inverted_bottleneck9_6_0/SeparableConv2d/depthwise_weights/Assign"
  input: "^inverted_bottleneck9_6_0/SeparableConv2d/BatchNorm/beta/Assign"
  input: "^inverted_bottleneck9_6_0/SeparableConv2d/BatchNorm/moving_mean/Assign"
  input: "^inverted_bottleneck9_6_0/SeparableConv2d/BatchNorm/moving_variance/Assign"
  input: "^inverted_bottleneck9_6_0/Conv_1/weights/Assign"
  input: "^inverted_bottleneck9_6_0/Conv_1/BatchNorm/beta/Assign"
  input: "^inverted_bottleneck9_6_0/Conv_1/BatchNorm/moving_mean/Assign"
  input: "^inverted_bottleneck9_6_0/Conv_1/BatchNorm/moving_variance/Assign"
  input: "^inverted_bottleneck10_6_0/Conv/weights/Assign"
  input: "^inverted_bottleneck10_6_0/Conv/BatchNorm/beta/Assign"
  input: "^inverted_bottleneck10_6_0/Conv/BatchNorm/moving_mean/Assign"
  input: "^inverted_bottleneck10_6_0/Conv/BatchNorm/moving_variance/Assign"
  input: "^inverted_bottleneck10_6_0/SeparableConv2d/depthwise_weights/Assign"
  input: "^inverted_bottleneck10_6_0/SeparableConv2d/BatchNorm/beta/Assign"
  input: "^inverted_bottleneck10_6_0/SeparableConv2d/BatchNorm/moving_mean/Assign"
  input: "^inverted_bottleneck10_6_0/SeparableConv2d/BatchNorm/moving_variance/Assign"
  input: "^inverted_bottleneck10_6_0/Conv_1/weights/Assign"
  input: "^inverted_bottleneck10_6_0/Conv_1/BatchNorm/beta/Assign"
  input: "^inverted_bottleneck10_6_0/Conv_1/BatchNorm/moving_mean/Assign"
  input: "^inverted_bottleneck10_6_0/Conv_1/BatchNorm/moving_variance/Assign"
  input: "^inverted_bottleneck11_6_0/Conv/weights/Assign"
  input: "^inverted_bottleneck11_6_0/Conv/BatchNorm/beta/Assign"
  input: "^inverted_bottleneck11_6_0/Conv/BatchNorm/moving_mean/Assign"
  input: "^inverted_bottleneck11_6_0/Conv/BatchNorm/moving_variance/Assign"
  input: "^inverted_bottleneck11_6_0/SeparableConv2d/depthwise_weights/Assign"
  input: "^inverted_bottleneck11_6_0/SeparableConv2d/BatchNorm/beta/Assign"
  input: "^inverted_bottleneck11_6_0/SeparableConv2d/BatchNorm/moving_mean/Assign"
  input: "^inverted_bottleneck11_6_0/SeparableConv2d/BatchNorm/moving_variance/Assign"
  input: "^inverted_bottleneck11_6_0/Conv_1/weights/Assign"
  input: "^inverted_bottleneck11_6_0/Conv_1/BatchNorm/beta/Assign"
  input: "^inverted_bottleneck11_6_0/Conv_1/BatchNorm/moving_mean/Assign"
  input: "^inverted_bottleneck11_6_0/Conv_1/BatchNorm/moving_variance/Assign"
  input: "^inverted_bottleneck12_6_0/Conv/weights/Assign"
  input: "^inverted_bottleneck12_6_0/Conv/BatchNorm/beta/Assign"
  input: "^inverted_bottleneck12_6_0/Conv/BatchNorm/moving_mean/Assign"
  input: "^inverted_bottleneck12_6_0/Conv/BatchNorm/moving_variance/Assign"
  input: "^inverted_bottleneck12_6_0/SeparableConv2d/depthwise_weights/Assign"
  input: "^inverted_bottleneck12_6_0/SeparableConv2d/BatchNorm/beta/Assign"
  input: "^inverted_bottleneck12_6_0/SeparableConv2d/BatchNorm/moving_mean/Assign"
  input: "^inverted_bottleneck12_6_0/SeparableConv2d/BatchNorm/moving_variance/Assign"
  input: "^inverted_bottleneck12_6_0/Conv_1/weights/Assign"
  input: "^inverted_bottleneck12_6_0/Conv_1/BatchNorm/beta/Assign"
  input: "^inverted_bottleneck12_6_0/Conv_1/BatchNorm/moving_mean/Assign"
  input: "^inverted_bottleneck12_6_0/Conv_1/BatchNorm/moving_variance/Assign"
  input: "^inverted_bottleneck13_6_1/Conv/weights/Assign"
  input: "^inverted_bottleneck13_6_1/Conv/BatchNorm/beta/Assign"
  input: "^inverted_bottleneck13_6_1/Conv/BatchNorm/moving_mean/Assign"
  input: "^inverted_bottleneck13_6_1/Conv/BatchNorm/moving_variance/Assign"
  input: "^inverted_bottleneck13_6_1/SeparableConv2d/depthwise_weights/Assign"
  input: "^inverted_bottleneck13_6_1/SeparableConv2d/BatchNorm/beta/Assign"
  input: "^inverted_bottleneck13_6_1/SeparableConv2d/BatchNorm/moving_mean/Assign"
  input: "^inverted_bottleneck13_6_1/SeparableConv2d/BatchNorm/moving_variance/Assign"
  input: "^inverted_bottleneck13_6_1/Conv_1/weights/Assign"
  input: "^inverted_bottleneck13_6_1/Conv_1/BatchNorm/beta/Assign"
  input: "^inverted_bottleneck13_6_1/Conv_1/BatchNorm/moving_mean/Assign"
  input: "^inverted_bottleneck13_6_1/Conv_1/BatchNorm/moving_variance/Assign"
  input: "^inverted_bottleneck14_6_0/Conv/weights/Assign"
  input: "^inverted_bottleneck14_6_0/Conv/BatchNorm/beta/Assign"
  input: "^inverted_bottleneck14_6_0/Conv/BatchNorm/moving_mean/Assign"
  input: "^inverted_bottleneck14_6_0/Conv/BatchNorm/moving_variance/Assign"
  input: "^inverted_bottleneck14_6_0/SeparableConv2d/depthwise_weights/Assign"
  input: "^inverted_bottleneck14_6_0/SeparableConv2d/BatchNorm/beta/Assign"
  input: "^inverted_bottleneck14_6_0/SeparableConv2d/BatchNorm/moving_mean/Assign"
  input: "^inverted_bottleneck14_6_0/SeparableConv2d/BatchNorm/moving_variance/Assign"
  input: "^inverted_bottleneck14_6_0/Conv_1/weights/Assign"
  input: "^inverted_bottleneck14_6_0/Conv_1/BatchNorm/beta/Assign"
  input: "^inverted_bottleneck14_6_0/Conv_1/BatchNorm/moving_mean/Assign"
  input: "^inverted_bottleneck14_6_0/Conv_1/BatchNorm/moving_variance/Assign"
  input: "^inverted_bottleneck15_6_0/Conv/weights/Assign"
  input: "^inverted_bottleneck15_6_0/Conv/BatchNorm/beta/Assign"
  input: "^inverted_bottleneck15_6_0/Conv/BatchNorm/moving_mean/Assign"
  input: "^inverted_bottleneck15_6_0/Conv/BatchNorm/moving_variance/Assign"
  input: "^inverted_bottleneck15_6_0/SeparableConv2d/depthwise_weights/Assign"
  input: "^inverted_bottleneck15_6_0/SeparableConv2d/BatchNorm/beta/Assign"
  input: "^inverted_bottleneck15_6_0/SeparableConv2d/BatchNorm/moving_mean/Assign"
  input: "^inverted_bottleneck15_6_0/SeparableConv2d/BatchNorm/moving_variance/Assign"
  input: "^inverted_bottleneck15_6_0/Conv_1/weights/Assign"
  input: "^inverted_bottleneck15_6_0/Conv_1/BatchNorm/beta/Assign"
  input: "^inverted_bottleneck15_6_0/Conv_1/BatchNorm/moving_mean/Assign"
  input: "^inverted_bottleneck15_6_0/Conv_1/BatchNorm/moving_variance/Assign"
  input: "^inverted_bottleneck16_6_0/Conv/weights/Assign"
  input: "^inverted_bottleneck16_6_0/Conv/BatchNorm/beta/Assign"
  input: "^inverted_bottleneck16_6_0/Conv/BatchNorm/moving_mean/Assign"
  input: "^inverted_bottleneck16_6_0/Conv/BatchNorm/moving_variance/Assign"
  input: "^inverted_bottleneck16_6_0/SeparableConv2d/depthwise_weights/Assign"
  input: "^inverted_bottleneck16_6_0/SeparableConv2d/BatchNorm/beta/Assign"
  input: "^inverted_bottleneck16_6_0/SeparableConv2d/BatchNorm/moving_mean/Assign"
  input: "^inverted_bottleneck16_6_0/SeparableConv2d/BatchNorm/moving_variance/Assign"
  input: "^inverted_bottleneck16_6_0/Conv_1/weights/Assign"
  input: "^inverted_bottleneck16_6_0/Conv_1/BatchNorm/beta/Assign"
  input: "^inverted_bottleneck16_6_0/Conv_1/BatchNorm/moving_mean/Assign"
  input: "^inverted_bottleneck16_6_0/Conv_1/BatchNorm/moving_variance/Assign"
  input: "^Conv/weights/Assign"
  input: "^Conv/BatchNorm/beta/Assign"
  input: "^Conv/BatchNorm/moving_mean/Assign"
  input: "^Conv/BatchNorm/moving_variance/Assign"
  input: "^Conv_1/weights/Assign"
  input: "^Conv_1/biases/Assign"
  input: "^Variable/Assign"
  input: "^Variable_1/Assign"
  input: "^train/beta1_power/Assign"
  input: "^train/beta2_power/Assign"
  input: "^init_conv/Conv/weights/Adam/Assign"
  input: "^init_conv/Conv/weights/Adam_1/Assign"
  input: "^init_conv/Conv/BatchNorm/beta/Adam/Assign"
  input: "^init_conv/Conv/BatchNorm/beta/Adam_1/Assign"
  input: "^inverted_bottleneck0_1_0/Conv/weights/Adam/Assign"
  input: "^inverted_bottleneck0_1_0/Conv/weights/Adam_1/Assign"
  input: "^inverted_bottleneck0_1_0/Conv/BatchNorm/beta/Adam/Assign"
  input: "^inverted_bottleneck0_1_0/Conv/BatchNorm/beta/Adam_1/Assign"
  input: "^inverted_bottleneck0_1_0/SeparableConv2d/depthwise_weights/Adam/Assign"
  input: "^inverted_bottleneck0_1_0/SeparableConv2d/depthwise_weights/Adam_1/Assign"
  input: "^inverted_bottleneck0_1_0/SeparableConv2d/BatchNorm/beta/Adam/Assign"
  input: "^inverted_bottleneck0_1_0/SeparableConv2d/BatchNorm/beta/Adam_1/Assign"
  input: "^inverted_bottleneck0_1_0/Conv_1/weights/Adam/Assign"
  input: "^inverted_bottleneck0_1_0/Conv_1/weights/Adam_1/Assign"
  input: "^inverted_bottleneck0_1_0/Conv_1/BatchNorm/beta/Adam/Assign"
  input: "^inverted_bottleneck0_1_0/Conv_1/BatchNorm/beta/Adam_1/Assign"
  input: "^inverted_bottleneck1_6_1/Conv/weights/Adam/Assign"
  input: "^inverted_bottleneck1_6_1/Conv/weights/Adam_1/Assign"
  input: "^inverted_bottleneck1_6_1/Conv/BatchNorm/beta/Adam/Assign"
  input: "^inverted_bottleneck1_6_1/Conv/BatchNorm/beta/Adam_1/Assign"
  input: "^inverted_bottleneck1_6_1/SeparableConv2d/depthwise_weights/Adam/Assign"
  input: "^inverted_bottleneck1_6_1/SeparableConv2d/depthwise_weights/Adam_1/Assign"
  input: "^inverted_bottleneck1_6_1/SeparableConv2d/BatchNorm/beta/Adam/Assign"
  input: "^inverted_bottleneck1_6_1/SeparableConv2d/BatchNorm/beta/Adam_1/Assign"
  input: "^inverted_bottleneck1_6_1/Conv_1/weights/Adam/Assign"
  input: "^inverted_bottleneck1_6_1/Conv_1/weights/Adam_1/Assign"
  input: "^inverted_bottleneck1_6_1/Conv_1/BatchNorm/beta/Adam/Assign"
  input: "^inverted_bottleneck1_6_1/Conv_1/BatchNorm/beta/Adam_1/Assign"
  input: "^inverted_bottleneck2_6_0/Conv/weights/Adam/Assign"
  input: "^inverted_bottleneck2_6_0/Conv/weights/Adam_1/Assign"
  input: "^inverted_bottleneck2_6_0/Conv/BatchNorm/beta/Adam/Assign"
  input: "^inverted_bottleneck2_6_0/Conv/BatchNorm/beta/Adam_1/Assign"
  input: "^inverted_bottleneck2_6_0/SeparableConv2d/depthwise_weights/Adam/Assign"
  input: "^inverted_bottleneck2_6_0/SeparableConv2d/depthwise_weights/Adam_1/Assign"
  input: "^inverted_bottleneck2_6_0/SeparableConv2d/BatchNorm/beta/Adam/Assign"
  input: "^inverted_bottleneck2_6_0/SeparableConv2d/BatchNorm/beta/Adam_1/Assign"
  input: "^inverted_bottleneck2_6_0/Conv_1/weights/Adam/Assign"
  input: "^inverted_bottleneck2_6_0/Conv_1/weights/Adam_1/Assign"
  input: "^inverted_bottleneck2_6_0/Conv_1/BatchNorm/beta/Adam/Assign"
  input: "^inverted_bottleneck2_6_0/Conv_1/BatchNorm/beta/Adam_1/Assign"
  input: "^inverted_bottleneck3_6_1/Conv/weights/Adam/Assign"
  input: "^inverted_bottleneck3_6_1/Conv/weights/Adam_1/Assign"
  input: "^inverted_bottleneck3_6_1/Conv/BatchNorm/beta/Adam/Assign"
  input: "^inverted_bottleneck3_6_1/Conv/BatchNorm/beta/Adam_1/Assign"
  input: "^inverted_bottleneck3_6_1/SeparableConv2d/depthwise_weights/Adam/Assign"
  input: "^inverted_bottleneck3_6_1/SeparableConv2d/depthwise_weights/Adam_1/Assign"
  input: "^inverted_bottleneck3_6_1/SeparableConv2d/BatchNorm/beta/Adam/Assign"
  input: "^inverted_bottleneck3_6_1/SeparableConv2d/BatchNorm/beta/Adam_1/Assign"
  input: "^inverted_bottleneck3_6_1/Conv_1/weights/Adam/Assign"
  input: "^inverted_bottleneck3_6_1/Conv_1/weights/Adam_1/Assign"
  input: "^inverted_bottleneck3_6_1/Conv_1/BatchNorm/beta/Adam/Assign"
  input: "^inverted_bottleneck3_6_1/Conv_1/BatchNorm/beta/Adam_1/Assign"
  input: "^inverted_bottleneck4_6_0/Conv/weights/Adam/Assign"
  input: "^inverted_bottleneck4_6_0/Conv/weights/Adam_1/Assign"
  input: "^inverted_bottleneck4_6_0/Conv/BatchNorm/beta/Adam/Assign"
  input: "^inverted_bottleneck4_6_0/Conv/BatchNorm/beta/Adam_1/Assign"
  input: "^inverted_bottleneck4_6_0/SeparableConv2d/depthwise_weights/Adam/Assign"
  input: "^inverted_bottleneck4_6_0/SeparableConv2d/depthwise_weights/Adam_1/Assign"
  input: "^inverted_bottleneck4_6_0/SeparableConv2d/BatchNorm/beta/Adam/Assign"
  input: "^inverted_bottleneck4_6_0/SeparableConv2d/BatchNorm/beta/Adam_1/Assign"
  input: "^inverted_bottleneck4_6_0/Conv_1/weights/Adam/Assign"
  input: "^inverted_bottleneck4_6_0/Conv_1/weights/Adam_1/Assign"
  input: "^inverted_bottleneck4_6_0/Conv_1/BatchNorm/beta/Adam/Assign"
  input: "^inverted_bottleneck4_6_0/Conv_1/BatchNorm/beta/Adam_1/Assign"
  input: "^inverted_bottleneck5_6_0/Conv/weights/Adam/Assign"
  input: "^inverted_bottleneck5_6_0/Conv/weights/Adam_1/Assign"
  input: "^inverted_bottleneck5_6_0/Conv/BatchNorm/beta/Adam/Assign"
  input: "^inverted_bottleneck5_6_0/Conv/BatchNorm/beta/Adam_1/Assign"
  input: "^inverted_bottleneck5_6_0/SeparableConv2d/depthwise_weights/Adam/Assign"
  input: "^inverted_bottleneck5_6_0/SeparableConv2d/depthwise_weights/Adam_1/Assign"
  input: "^inverted_bottleneck5_6_0/SeparableConv2d/BatchNorm/beta/Adam/Assign"
  input: "^inverted_bottleneck5_6_0/SeparableConv2d/BatchNorm/beta/Adam_1/Assign"
  input: "^inverted_bottleneck5_6_0/Conv_1/weights/Adam/Assign"
  input: "^inverted_bottleneck5_6_0/Conv_1/weights/Adam_1/Assign"
  input: "^inverted_bottleneck5_6_0/Conv_1/BatchNorm/beta/Adam/Assign"
  input: "^inverted_bottleneck5_6_0/Conv_1/BatchNorm/beta/Adam_1/Assign"
  input: "^inverted_bottleneck6_6_1/Conv/weights/Adam/Assign"
  input: "^inverted_bottleneck6_6_1/Conv/weights/Adam_1/Assign"
  input: "^inverted_bottleneck6_6_1/Conv/BatchNorm/beta/Adam/Assign"
  input: "^inverted_bottleneck6_6_1/Conv/BatchNorm/beta/Adam_1/Assign"
  input: "^inverted_bottleneck6_6_1/SeparableConv2d/depthwise_weights/Adam/Assign"
  input: "^inverted_bottleneck6_6_1/SeparableConv2d/depthwise_weights/Adam_1/Assign"
  input: "^inverted_bottleneck6_6_1/SeparableConv2d/BatchNorm/beta/Adam/Assign"
  input: "^inverted_bottleneck6_6_1/SeparableConv2d/BatchNorm/beta/Adam_1/Assign"
  input: "^inverted_bottleneck6_6_1/Conv_1/weights/Adam/Assign"
  input: "^inverted_bottleneck6_6_1/Conv_1/weights/Adam_1/Assign"
  input: "^inverted_bottleneck6_6_1/Conv_1/BatchNorm/beta/Adam/Assign"
  input: "^inverted_bottleneck6_6_1/Conv_1/BatchNorm/beta/Adam_1/Assign"
  input: "^inverted_bottleneck7_6_0/Conv/weights/Adam/Assign"
  input: "^inverted_bottleneck7_6_0/Conv/weights/Adam_1/Assign"
  input: "^inverted_bottleneck7_6_0/Conv/BatchNorm/beta/Adam/Assign"
  input: "^inverted_bottleneck7_6_0/Conv/BatchNorm/beta/Adam_1/Assign"
  input: "^inverted_bottleneck7_6_0/SeparableConv2d/depthwise_weights/Adam/Assign"
  input: "^inverted_bottleneck7_6_0/SeparableConv2d/depthwise_weights/Adam_1/Assign"
  input: "^inverted_bottleneck7_6_0/SeparableConv2d/BatchNorm/beta/Adam/Assign"
  input: "^inverted_bottleneck7_6_0/SeparableConv2d/BatchNorm/beta/Adam_1/Assign"
  input: "^inverted_bottleneck7_6_0/Conv_1/weights/Adam/Assign"
  input: "^inverted_bottleneck7_6_0/Conv_1/weights/Adam_1/Assign"
  input: "^inverted_bottleneck7_6_0/Conv_1/BatchNorm/beta/Adam/Assign"
  input: "^inverted_bottleneck7_6_0/Conv_1/BatchNorm/beta/Adam_1/Assign"
  input: "^inverted_bottleneck8_6_0/Conv/weights/Adam/Assign"
  input: "^inverted_bottleneck8_6_0/Conv/weights/Adam_1/Assign"
  input: "^inverted_bottleneck8_6_0/Conv/BatchNorm/beta/Adam/Assign"
  input: "^inverted_bottleneck8_6_0/Conv/BatchNorm/beta/Adam_1/Assign"
  input: "^inverted_bottleneck8_6_0/SeparableConv2d/depthwise_weights/Adam/Assign"
  input: "^inverted_bottleneck8_6_0/SeparableConv2d/depthwise_weights/Adam_1/Assign"
  input: "^inverted_bottleneck8_6_0/SeparableConv2d/BatchNorm/beta/Adam/Assign"
  input: "^inverted_bottleneck8_6_0/SeparableConv2d/BatchNorm/beta/Adam_1/Assign"
  input: "^inverted_bottleneck8_6_0/Conv_1/weights/Adam/Assign"
  input: "^inverted_bottleneck8_6_0/Conv_1/weights/Adam_1/Assign"
  input: "^inverted_bottleneck8_6_0/Conv_1/BatchNorm/beta/Adam/Assign"
  input: "^inverted_bottleneck8_6_0/Conv_1/BatchNorm/beta/Adam_1/Assign"
  input: "^inverted_bottleneck9_6_0/Conv/weights/Adam/Assign"
  input: "^inverted_bottleneck9_6_0/Conv/weights/Adam_1/Assign"
  input: "^inverted_bottleneck9_6_0/Conv/BatchNorm/beta/Adam/Assign"
  input: "^inverted_bottleneck9_6_0/Conv/BatchNorm/beta/Adam_1/Assign"
  input: "^inverted_bottleneck9_6_0/SeparableConv2d/depthwise_weights/Adam/Assign"
  input: "^inverted_bottleneck9_6_0/SeparableConv2d/depthwise_weights/Adam_1/Assign"
  input: "^inverted_bottleneck9_6_0/SeparableConv2d/BatchNorm/beta/Adam/Assign"
  input: "^inverted_bottleneck9_6_0/SeparableConv2d/BatchNorm/beta/Adam_1/Assign"
  input: "^inverted_bottleneck9_6_0/Conv_1/weights/Adam/Assign"
  input: "^inverted_bottleneck9_6_0/Conv_1/weights/Adam_1/Assign"
  input: "^inverted_bottleneck9_6_0/Conv_1/BatchNorm/beta/Adam/Assign"
  input: "^inverted_bottleneck9_6_0/Conv_1/BatchNorm/beta/Adam_1/Assign"
  input: "^inverted_bottleneck10_6_0/Conv/weights/Adam/Assign"
  input: "^inverted_bottleneck10_6_0/Conv/weights/Adam_1/Assign"
  input: "^inverted_bottleneck10_6_0/Conv/BatchNorm/beta/Adam/Assign"
  input: "^inverted_bottleneck10_6_0/Conv/BatchNorm/beta/Adam_1/Assign"
  input: "^inverted_bottleneck10_6_0/SeparableConv2d/depthwise_weights/Adam/Assign"
  input: "^inverted_bottleneck10_6_0/SeparableConv2d/depthwise_weights/Adam_1/Assign"
  input: "^inverted_bottleneck10_6_0/SeparableConv2d/BatchNorm/beta/Adam/Assign"
  input: "^inverted_bottleneck10_6_0/SeparableConv2d/BatchNorm/beta/Adam_1/Assign"
  input: "^inverted_bottleneck10_6_0/Conv_1/weights/Adam/Assign"
  input: "^inverted_bottleneck10_6_0/Conv_1/weights/Adam_1/Assign"
  input: "^inverted_bottleneck10_6_0/Conv_1/BatchNorm/beta/Adam/Assign"
  input: "^inverted_bottleneck10_6_0/Conv_1/BatchNorm/beta/Adam_1/Assign"
  input: "^inverted_bottleneck11_6_0/Conv/weights/Adam/Assign"
  input: "^inverted_bottleneck11_6_0/Conv/weights/Adam_1/Assign"
  input: "^inverted_bottleneck11_6_0/Conv/BatchNorm/beta/Adam/Assign"
  input: "^inverted_bottleneck11_6_0/Conv/BatchNorm/beta/Adam_1/Assign"
  input: "^inverted_bottleneck11_6_0/SeparableConv2d/depthwise_weights/Adam/Assign"
  input: "^inverted_bottleneck11_6_0/SeparableConv2d/depthwise_weights/Adam_1/Assign"
  input: "^inverted_bottleneck11_6_0/SeparableConv2d/BatchNorm/beta/Adam/Assign"
  input: "^inverted_bottleneck11_6_0/SeparableConv2d/BatchNorm/beta/Adam_1/Assign"
  input: "^inverted_bottleneck11_6_0/Conv_1/weights/Adam/Assign"
  input: "^inverted_bottleneck11_6_0/Conv_1/weights/Adam_1/Assign"
  input: "^inverted_bottleneck11_6_0/Conv_1/BatchNorm/beta/Adam/Assign"
  input: "^inverted_bottleneck11_6_0/Conv_1/BatchNorm/beta/Adam_1/Assign"
  input: "^inverted_bottleneck12_6_0/Conv/weights/Adam/Assign"
  input: "^inverted_bottleneck12_6_0/Conv/weights/Adam_1/Assign"
  input: "^inverted_bottleneck12_6_0/Conv/BatchNorm/beta/Adam/Assign"
  input: "^inverted_bottleneck12_6_0/Conv/BatchNorm/beta/Adam_1/Assign"
  input: "^inverted_bottleneck12_6_0/SeparableConv2d/depthwise_weights/Adam/Assign"
  input: "^inverted_bottleneck12_6_0/SeparableConv2d/depthwise_weights/Adam_1/Assign"
  input: "^inverted_bottleneck12_6_0/SeparableConv2d/BatchNorm/beta/Adam/Assign"
  input: "^inverted_bottleneck12_6_0/SeparableConv2d/BatchNorm/beta/Adam_1/Assign"
  input: "^inverted_bottleneck12_6_0/Conv_1/weights/Adam/Assign"
  input: "^inverted_bottleneck12_6_0/Conv_1/weights/Adam_1/Assign"
  input: "^inverted_bottleneck12_6_0/Conv_1/BatchNorm/beta/Adam/Assign"
  input: "^inverted_bottleneck12_6_0/Conv_1/BatchNorm/beta/Adam_1/Assign"
  input: "^inverted_bottleneck13_6_1/Conv/weights/Adam/Assign"
  input: "^inverted_bottleneck13_6_1/Conv/weights/Adam_1/Assign"
  input: "^inverted_bottleneck13_6_1/Conv/BatchNorm/beta/Adam/Assign"
  input: "^inverted_bottleneck13_6_1/Conv/BatchNorm/beta/Adam_1/Assign"
  input: "^inverted_bottleneck13_6_1/SeparableConv2d/depthwise_weights/Adam/Assign"
  input: "^inverted_bottleneck13_6_1/SeparableConv2d/depthwise_weights/Adam_1/Assign"
  input: "^inverted_bottleneck13_6_1/SeparableConv2d/BatchNorm/beta/Adam/Assign"
  input: "^inverted_bottleneck13_6_1/SeparableConv2d/BatchNorm/beta/Adam_1/Assign"
  input: "^inverted_bottleneck13_6_1/Conv_1/weights/Adam/Assign"
  input: "^inverted_bottleneck13_6_1/Conv_1/weights/Adam_1/Assign"
  input: "^inverted_bottleneck13_6_1/Conv_1/BatchNorm/beta/Adam/Assign"
  input: "^inverted_bottleneck13_6_1/Conv_1/BatchNorm/beta/Adam_1/Assign"
  input: "^inverted_bottleneck14_6_0/Conv/weights/Adam/Assign"
  input: "^inverted_bottleneck14_6_0/Conv/weights/Adam_1/Assign"
  input: "^inverted_bottleneck14_6_0/Conv/BatchNorm/beta/Adam/Assign"
  input: "^inverted_bottleneck14_6_0/Conv/BatchNorm/beta/Adam_1/Assign"
  input: "^inverted_bottleneck14_6_0/SeparableConv2d/depthwise_weights/Adam/Assign"
  input: "^inverted_bottleneck14_6_0/SeparableConv2d/depthwise_weights/Adam_1/Assign"
  input: "^inverted_bottleneck14_6_0/SeparableConv2d/BatchNorm/beta/Adam/Assign"
  input: "^inverted_bottleneck14_6_0/SeparableConv2d/BatchNorm/beta/Adam_1/Assign"
  input: "^inverted_bottleneck14_6_0/Conv_1/weights/Adam/Assign"
  input: "^inverted_bottleneck14_6_0/Conv_1/weights/Adam_1/Assign"
  input: "^inverted_bottleneck14_6_0/Conv_1/BatchNorm/beta/Adam/Assign"
  input: "^inverted_bottleneck14_6_0/Conv_1/BatchNorm/beta/Adam_1/Assign"
  input: "^inverted_bottleneck15_6_0/Conv/weights/Adam/Assign"
  input: "^inverted_bottleneck15_6_0/Conv/weights/Adam_1/Assign"
  input: "^inverted_bottleneck15_6_0/Conv/BatchNorm/beta/Adam/Assign"
  input: "^inverted_bottleneck15_6_0/Conv/BatchNorm/beta/Adam_1/Assign"
  input: "^inverted_bottleneck15_6_0/SeparableConv2d/depthwise_weights/Adam/Assign"
  input: "^inverted_bottleneck15_6_0/SeparableConv2d/depthwise_weights/Adam_1/Assign"
  input: "^inverted_bottleneck15_6_0/SeparableConv2d/BatchNorm/beta/Adam/Assign"
  input: "^inverted_bottleneck15_6_0/SeparableConv2d/BatchNorm/beta/Adam_1/Assign"
  input: "^inverted_bottleneck15_6_0/Conv_1/weights/Adam/Assign"
  input: "^inverted_bottleneck15_6_0/Conv_1/weights/Adam_1/Assign"
  input: "^inverted_bottleneck15_6_0/Conv_1/BatchNorm/beta/Adam/Assign"
  input: "^inverted_bottleneck15_6_0/Conv_1/BatchNorm/beta/Adam_1/Assign"
  input: "^inverted_bottleneck16_6_0/Conv/weights/Adam/Assign"
  input: "^inverted_bottleneck16_6_0/Conv/weights/Adam_1/Assign"
  input: "^inverted_bottleneck16_6_0/Conv/BatchNorm/beta/Adam/Assign"
  input: "^inverted_bottleneck16_6_0/Conv/BatchNorm/beta/Adam_1/Assign"
  input: "^inverted_bottleneck16_6_0/SeparableConv2d/depthwise_weights/Adam/Assign"
  input: "^inverted_bottleneck16_6_0/SeparableConv2d/depthwise_weights/Adam_1/Assign"
  input: "^inverted_bottleneck16_6_0/SeparableConv2d/BatchNorm/beta/Adam/Assign"
  input: "^inverted_bottleneck16_6_0/SeparableConv2d/BatchNorm/beta/Adam_1/Assign"
  input: "^inverted_bottleneck16_6_0/Conv_1/weights/Adam/Assign"
  input: "^inverted_bottleneck16_6_0/Conv_1/weights/Adam_1/Assign"
  input: "^inverted_bottleneck16_6_0/Conv_1/BatchNorm/beta/Adam/Assign"
  input: "^inverted_bottleneck16_6_0/Conv_1/BatchNorm/beta/Adam_1/Assign"
  input: "^Conv/weights/Adam/Assign"
  input: "^Conv/weights/Adam_1/Assign"
  input: "^Conv/BatchNorm/beta/Adam/Assign"
  input: "^Conv/BatchNorm/beta/Adam_1/Assign"
  input: "^Conv_1/weights/Adam/Assign"
  input: "^Conv_1/weights/Adam_1/Assign"
  input: "^Conv_1/biases/Adam/Assign"
  input: "^Conv_1/biases/Adam_1/Assign"
  input: "^Variable/Adam/Assign"
  input: "^Variable/Adam_1/Assign"
  input: "^Variable_1/Adam/Assign"
  input: "^Variable_1/Adam_1/Assign"
  input: "^global_step/Assign"
}
versions {
  producer: 26
}
